Python_HY/LungCancer/trained_model/Linear_2000_0.0001.pth (torch, 178223 bytes, 5 tensors)

weight f4 [200, 15]
-0.1322595 -0.16873811 -0.14557031 0.021866139 0.22912896 0.1606746 -0.030876778 0.07180101
0.20347369 0.09322399 -0.09427297 0.016311202 -0.21753779 -0.1564002 -0.17009106 0.14273107
-0.16361333 -0.22336721 0.08285728 0.11963853 -0.2433125 0.24893942 -0.025286242 -0.06187214
-0.007428021 0.113943905 -0.19361097 -0.03575355 -0.15811875 0.13029465 0.20157439 -0.11865005
0.21600908 0.15114197 0.14005697 0.22395256 -0.19950485 -0.025604805 -0.16398242 0.10348473
0.20063072 -0.16019492 0.049165383 0.22156513 -0.15939954 0.083153635 0.17227462 -0.09601
-0.01326175 -0.21293974 -0.25316438 0.1826998 0.006700456 -0.06662138 0.034524918 -0.17170708
0.1221101 -0.02789168 -0.15276983 0.016038775 -0.06221579 -0.23232044 -0.068406016 0.20271239
-0.1320209 -0.052537724 -0.003944813 -0.2516792 -0.21031982 0.19995677 0.055384636 -0.15792722
-0.20141606 -0.19453332 -0.11235377 -0.10942204 0.14486398 -0.04106273 -0.06970865 0.11896064
-0.11386038 -0.001979204 0.0218184 -0.23615366 0.119830646 -0.20974338 -0.035407282 0.21684623
-0.06940649 -0.054967016 0.053689152 0.21118057 -0.2511249 -0.17810717 0.21516275 -0.20256555
0.23570737 -0.2328778 -0.0584445 -0.032620892 -0.227106 0.04144597 0.08516723 -0.25166756
0.06908986 0.23095724 0.22171547 0.02979669 -0.21270728 0.15001956 0.23045659 -0.06360342
0.2147314 -0.008505021 -0.08686248 0.177915 0.1703066 -0.07765568 0.2249985 0.25195274
-0.19030619 -0.15271385 -0.16999835 0.2520058 0.063545495 -0.2524898 0.08269966 0.14159098
-0.24346535 0.07201588 0.20251644 0.23136705 -0.11030394 -0.10115652 0.030068457 -0.18434647
0.12088735 -0.18632092 -0.22840491 -0.22585191 0.07776338 -0.07714392 -0.17406447 0.123477064
-0.25201175 -0.12972206 0.20965979 0.17570904 0.17534855 -0.199943 0.14214373 -0.053698827
-0.2071532 -0.018410876 0.23958564 -0.047465697 -0.22083297 -0.17687908 -0.22831953 0.02528742
0.018753022 -0.12801461 -0.14757407 0.08529055 0.044798076 -0.15940806 -0.22959338 0.082864955
-0.17290977 -0.15532957 0.2227585 0.1371805 -0.051629633 0.2521915 -0.044966746 -0.035288706
-0.025015127 -0.18900183 0.114351705 0.08006472 0.2324509 0.07441818 0.18751302 0.13141519
-0.17426124 0.11777684 0.05488938 -0.19427997 0.12399036 -0.11541282 -0.22155735 0.19242442
-0.04337649 0.08191705 -0.07786897 -0.25337815 0.24945098 -0.1847827 0.10466233 0.039587997
-0.23152593 0.20940208 -0.027065493 -0.17427894 -0.180953 0.13886023 0.1477238 0.18632588
0.17601824 -0.16315258 0.22796041 -0.017069725 0.14037114 0.078370094 0.08388147 -0.054088473
0.092027515 -0.088403895 0.057234168 0.17168441 0.00913904 -0.15861133 -0.021283055 -0.02556102
-0.12708497 -0.012053801 0.026782237 0.10823256 0.22230345 -0.18035892 -0.09078102 0.014173867
-0.04835921 -0.1682094 -0.12273358 0.124236405 -0.022721205 -0.12885773 -0.23284392 0.2159048
0.25027856 -0.14130662 0.08762661 -0.19717431 0.073780425 0.062077723 -0.14297125 0.25454685
-0.2235045 -0.15203534 0.14209583 -0.20203972 0.19234392 0.24655607 0.099264376 0.027734326
00000000: 096f 07be afc9 2cbe 6210 15be 9e20 b33c
00000010: c8a0 6a3e e287 243e 4cf1 fcbc 680c 933d
00000020: 685b 503e 38ec be3d 3012 c1bd 129f 853c
00000030: 3ac2 5ebe 6027 20be 5a2c 2ebe 1828 123e
00000040: 418a 27be 60ba 64be 14b1 a93d 0c05 f53d
00000050: e926 79be fae9 7e3e 1825 cfbc a46d 7dbd
00000060: c266 f3bb 6c5b e93d f441 46be 5072 12bd
00000070: e2e9 21be f66b 053e 8469 4e3e ccfe f2bd
00000080: 7c31 5d3e f6c4 1a3e 186b 0f3e d253 653e
00000090: 004b 4cbe 2bc1 d1bc 02eb 27be cdef d33d
000000a0: 2472 4d3e 230a 24be a461 493d f8e1 623e
000000b0: a239 23be 744c aa3d c268 303e e4a0 c4bd
000000c0: d047 59bc e00c 5abe c39e 81be a815 3b3e
000000d0: 808f db3b ca70 88bd 006a 0d3d fbd3 2fbe
000000e0: dc14 fa3d 187d e4bc b26f 1cbe c063 833c
000000f0: fcd5 7ebd 69e5 6dbe 7418 8cbd d693 4f3e
00000100: 7d30 07be cc31 57bd 7d43 81bb 19dc 80be
00000110: 145e 57be 78c1 4c3e 00db 623d acb7 21be
00000120: 0340 4ebe be33 47be bc19 e6bd aa18 e0bd
00000130: 3957 143e 6531 28bd 69c3 8ebd a3a1 f33d
00000140: a22f e9bd 88b5 01bb 80bc b23c 44d2 71be
00000150: c569 f53d f8c6 56be 3a07 11bd f00c 5e3e
00000160: fd24 8ebd 1825 61bd 28e9 5b3d b83f 583e
00000170: 7193 80be ba61 36be a053 5c3e 586d 4fbe
00000180: 465d 713e 8577 6ebe 8063 6fbd 7c9d 05bd
00000190: 7a8e 68be 40c3 293d 286c ae3d 92da 80be
000001a0: fc7e 8d3d 0e80 6c3e 6109 633e 3018 f43c
000001b0: f0cf 59be ba9e 193e d0fc 6b3e 8342 82bd
000001c0: 8ce2 5b3e a558 0bbc f5e4 b1bd 5a2f 363e
000001d0: da64 2e3e f109 9fbd 0266 663e f3ff 803e
000001e0: a0df 42be 0561 1cbe 0c14 2ebe e706 813e
000001f0: 2424 823d 5846 81be 705e a93d 3afd 103e
00000200: fb4e 79be 107d 933d 7860 4f3e 7ceb 6c3e
00000210: 08e7 e1bd 262b cfbd 2052 f63c 52c5 3cbe
00000220: c993 f73d e9ca 3ebe fae2 69be b945 67be
00000230: 6842 9f3d a2fd 9dbd f53d 32be 8be1 fc3d
00000240: af07 81be dcd5 04be 0eb1 563e 12ed 333e
00000250: 928e 333e dcbd 4cbe 208e 113e 4df3 5bbd
00000260: f81f 54be 68d2 96bc f055 753e 646b 42bd
00000270: 0a22 62be ca1f 35be 98cc 69be 9027 cf3c
00000280: f09f 993c 4316 03be a81d 17be d0ac ae3d
00000290: 307e 373d de3b 23be 871a 6bbe 1ab5 a93d
000002a0: 420f 31be b70e 1fbe ce1a 643e 0c79 0c3e
000002b0: 9879 53bd 3f1f 813e 0d2f 38bd e48a 10bd
000002c0: 86ec ccbc b289 41be 3a31 ea3d f9f8 a33d
000002d0: 9c07 6e3e 8f68 983d 6a03 403e b491 063e
000002e0: 8a71 32be fc34 f13d b0d3 603d 54f1 46be
000002f0: a8ee fd3d 8e5d ecbd eedf 62be e80a 453e
00000300: 8cab 31bd 20c4 a73d c479 9fbd c8ba 81be
00000310: 1470 7f3e ad37 3dbe 3459 d63d 0627 223d
00000320: 2215 6dbe 806d 563e 74b8 ddbc 2e76 32be
00000330: be4b 39be 6031 0e3e e844 173e 36cc 3e3e
00000340: 203e 343e 7811 27be 746e 693e cfd5 8bbc
00000350: 74bd 0f3e 8080 a03d 0cca ab3d e08b 5dbd
00000360: ec78 bc3d 1a0d b5bd 606e 6a3d 0ace 2f3e
00000370: e9bb 153c 026b 22be cd59 aebc 5865 d1bc
00000380: 9022 02be 4e7d 45bc 6c66 db3c 08a9 dd3d
00000390: 84a3 633e 02b0 38be 66eb b9bd 8239 683c
000003a0: 4f14 46bd 163f 2cbe be5b fbbd a86f fe3d
000003b0: d221 babc 48f3 03be a36e 6ebe 2616 5d3e
000003c0: 8324 803e afb2 10be 9575 b33d 10e8 49be
000003d0: 311a 973d 3645 7e3d 0e67 12be f753 823e
000003e0: 5dde 64be 27af 1bbe 9281 113e 80e3 4ebe
000003f0: cef5 443e 3279 7c3e 1f4b cb3d 1933 e33c

bias f4 [200]
0.17019546 0.23644516 0.052421674 -0.18124439 0.076679304 0.02085165 -0.22960491 0.015828101
-0.08421087 -0.048045717 0.113165855 0.24579658 0.25500047 0.23576939 0.18408804 0.18626823
0.24309188 0.13152799 0.13614114 0.11985446 0.21438165 0.054404404 0.028030822 0.07233907
-0.19412018 -0.065128215 -0.0038799345 -0.1863156 -0.040631916 0.13216381 -0.11575571 -0.23229678
0.16762434 0.030323327 0.0736406 0.013230995 0.05116251 -0.100998566 0.039046302 -0.16777813
0.14916407 0.23719169 0.06700538 0.24687853 0.25599504 0.08499795 0.023213191 -0.19282483
-0.13467175 0.16172129 0.052477617 -0.17419602 0.1048909 0.0602504 0.07348575 0.23330365
-0.1322545 -0.24936652 0.022695204 -0.06140841 -0.1098403 0.03453182 0.17252627 0.12950735
0.1809712 0.035151195 0.023670346 0.21956174 0.064523175 -0.092023686 -0.12871191 0.12870945
0.003965467 -0.033153456 -0.012879804 0.2169492 -0.20144455 0.06336401 -0.2011342 0.2544813
0.0440113 -0.047132097 -0.24244097 -0.16429949 0.25574222 -0.068760544 -0.2451651 -0.089604005
0.02748788 0.021485135 0.23415475 -0.22323053 0.21859822 -0.136356 0.11432687 0.24852861
0.040065367 -0.17119333 0.18196625 -0.19868469 0.096043415 0.040927947 -0.18984577 -0.06258887
-0.09575884 -0.12759413 0.13820612 0.103558265 -0.14298013 -0.20280044 0.25139627 0.25053692
0.04825637 0.038368605 -0.15163416 -0.19340678 -0.09341626 0.04464283 -0.118324205 -0.20954168
-0.1146375 0.15275829 -0.04910244 0.24405889 -0.07727735 0.13232502 -0.2562971 0.060512293
0.17870891 -0.0041781543 0.037499152 0.08055739 -0.056299493 0.13884929 0.19593796 0.17490971
0.027460255 -0.21119723 -0.20913872 -0.018753394 0.030469403 -0.05906628 0.09599087 -0.18570402
0.043473154 -0.16697383 0.01684213 -0.18761769 -0.21603695 -0.115857035 0.1784359 0.040519606
-0.12133448 0.07927612 0.04437285 -0.20829178 -0.1689402 -0.17756459 0.1456594 0.008438203
0.00589269 0.18279476 -0.020185918 -0.1171419 0.22824863 0.094853476 0.067379914 -0.21191871
-0.03585811 -0.09758669 -0.20471832 0.14140566 -0.015804023 -0.12652121 0.07885819 0.0842297
-0.17547101 -0.15409127 0.23104496 -0.11764462 -0.026611937 -0.03299932 -0.22174971 -0.13550434
0.06928543 0.05551538 -0.080500044 -0.18734229 -0.121283084 -0.23887484 -0.08223207 -0.19847554
-0.13770398 -0.15932328 -0.017852595 0.10134682 -0.09556739 -0.16807951 0.08082582 -0.15400663
00000000: b847 2e3e ae1e 723e 1cb8 563d 2198 39be
00000010: 0a0a 9d3d 14d1 aa3c 8d1d 6bbe efa9 813c
00000020: c076 acbd 96cb 44bd 80c3 e73d 19b2 7b3e
00000030: 6c8f 823e 886d 713e 9381 3c3e 19bd 3e3e
00000040: 14ed 783e 46af 063e 9568 0b3e 4176 f53d
00000050: dd86 5b3e 27d7 5e3d e5a0 e53c 8226 943d
00000060: 71c7 46be f161 85bd 8046 7ebb 84c9 3ebe
00000070: a76d 26bd f355 073e 5411 edbd 35df 6dbe
00000080: b7a5 2b3e a068 f83c e2d0 963d d1c6 583c
00000090: c88f 513d 56d8 cebd 04ef 1f3d 08ce 2bbe
000000a0: 77be 183e 61e2 723e 1e3a 893d bacd 7c3e
000000b0: c811 833e 6813 ae3d 9729 be3c df73 45be
000000c0: 64e7 09be 449a 253e c5f2 563d 7160 32be
000000d0: 0ad1 d63d 20c9 763d b27f 963d 27e7 6e3e
000000e0: b96d 07be f059 7fbe 4beb b93c 6387 7bbd
000000f0: f4f3 e0bd 3d71 0d3d baaa 303e 939d 043e
00000100: 8450 393e b3fa 0f3d 50e8 c13c cbd4 603e
00000110: ba24 843d ea76 bcbd 0ecd 03be 69cc 033e
00000120: c0f0 813b ebcb 07bd d005 53bc ee27 5e3e
00000130: 7b47 4ebe fdc4 813d 20f6 4dbe 5f4b 823e
00000140: 3145 343d 960d 41bd 7242 78be 203e 28be
00000150: a5f0 823e 54d2 8cbd 8f0c 7bbe 4e82 b7bd
00000160: 432e e13c 9801 b03c 43c6 6f3e 8b96 64be
00000170: 36d8 5f3e e8a0 0bbe 3524 ea3d 497e 7e3e
00000180: 951b 243d 4e4d 2fbe 5c55 3a3e 0074 4bbe
00000190: 69b2 c43d 10a4 273d ee66 42be 982e 80bd
000001a0: 361d c4bd 09a8 02be e885 0d3e 5b16 d43d
000001b0: 6269 12be ebaa 4fbe 03b7 803e 6046 803e
000001c0: 79a8 453d 6628 1d3d fc45 1bbe 6d0c 46be
000001d0: 0651 bfbd 66db 363d f653 f2bd 1892 56be
000001e0: 11c7 eabd ab6c 1c3e a41f 49bd 93ea 793e
000001f0: 9643 9ebd 3680 073e 6039 83be bddb 773d
00000200: 78ff 363e e6e8 88bb b698 193d 46fb a43d
00000210: 4c9a 66bd 822e 0e3e f6a3 483e 881b 333e
00000220: 54f4 e03c 1644 58be 7628 56be b8a0 99bc
00000230: f89a f93c 7cef 71bd dc96 c43d 3229 3ebe
00000240: e810 323d 30fb 2abe 82f8 893c da1e 40be
00000250: ca38 5dbe 7446 edbd e7b7 363e e3f7 253d
00000260: 367e f8bd 855b a23d 4ec0 353d 714a 55be
00000270: a9fe 2cbe 7ed3 35be bd27 153e 6340 0a3c
00000280: 7717 c13b 8d2e 3b3e f05c a5bc 18e8 efbd
00000290: 02ba 693e 8a42 c23d 7bfe 893d 3801 59be
000002a0: f4df 12bd 88db c7bd aea1 51be a5cc 103e
000002b0: 7077 81bc c78e 01be 6780 a13d 9f80 ac3d
000002c0: acae 33be 1aca 1dbe 0d97 6c3e aaef f0bd
000002d0: 4701 dabc 4c2a 07bd 5b12 63be a6c1 0abe
000002e0: 85e5 8d3d 1864 633d 35dd a4bd a8d6 3fbe
000002f0: 4463 f8bd 9b9b 74be 4a69 a8bd 2c3d 4bbe
00000300: 4602 0dbe a425 23be 9b3f 92bc ec8e cf3d
00000310: d6b8 c3bd 091d 2cbe 0288 a53d eab3 1dbe

weight f4 [200, 200]
-0.068180844 -0.004682872 -0.011655282 -0.060235985 -0.065131575 0.0043699373 -0.022498712 -0.024290044
-0.023110744 0.05765589 0.04831356 -0.015119632 -0.03823412 0.004554937 -0.0124531165 0.014185467
-0.041362874 0.045650277 -0.061753668 -0.016895264 -0.008483641 -0.02567138 -0.05383842 -0.03549589
0.06864918 -0.008837105 0.009232782 -0.012292381 -0.020463336 -0.05497388 0.06854764 -0.030711088
-0.032746702 0.0048712664 0.070004165 -0.01932059 0.05887475 0.045222376 0.014509234 -0.047803447
-0.015889855 0.041581757 -0.05114173 -0.019733453 -0.03919707 -0.018619256 -0.0038012366 -0.016292743
-0.024950951 0.05501833 -0.023089236 -0.022468291 0.0008098968 -0.06840389 -0.01690672 -0.0075758216
0.022435062 -0.014220431 0.06587007 0.03980572 0.00040398538 -0.0122688385 -0.032574452 0.025373355
-0.03808505 0.06742432 0.0021424964 0.0046740347 0.022031013 -0.052469805 0.024153294 0.04096794
0.050251864 0.028865045 0.053760223 0.026880411 -0.03421054 0.026086913 -0.057462074 -0.047694124
-0.035714515 0.011048765 -0.051386047 -0.031775195 -0.0027183772 -0.012477037 0.04117565 -0.048267577
-0.015245598 -0.032730393 0.06860416 -0.005924627 -0.016244069 0.050272092 0.066894986 0.014731441
0.049215794 -0.019674394 0.051797345 -0.0045019314 0.0022975057 0.057303995 -0.002969727 -0.055452824
-0.022029966 -0.059560243 0.034536246 0.038050346 -0.06774144 -0.0037990734 0.027163403 -0.007904618
-0.05695067 -0.04996168 -0.026288077 0.0011929348 0.06885903 0.053527728 -0.050937265 -0.0007065758
0.06443813 0.037335597 0.06527009 -0.027356658 0.045574754 -0.01654821 0.0535011 0.040592253
0.06484597 0.023051938 0.011897117 0.05276793 -0.055023354 0.06183925 -0.0098202145 0.048969302
-0.028736705 0.00496269 -0.03750294 -0.028098572 0.012868018 -0.026941415 -0.04120389 0.019220144
0.06753757 -0.06582878 0.038466346 -0.011996292 0.0006635189 0.03530647 0.051801056 0.026547477
0.018702555 -0.05338374 -0.038886756 0.05856841 0.062105022 -0.051924128 0.0652029 -0.046719577
0.059076823 -0.010701945 -0.06098796 0.04251121 -0.058957998 0.012042203 -0.04867163 -0.064471275
-0.07005829 0.0053606257 -0.016288612 0.05015432 -0.043727085 -0.018670768 -0.06000017 -0.03223374
0.06507986 -0.030656084 -0.056036886 -0.05448877 -0.00458866 -0.04584997 0.012184545 0.043895945
0.04368825 0.03734451 -0.0014295665 -0.054322913 0.05578112 0.0021437332 0.049393393 0.02653785
0.0428913 -0.006006725 0.0154675115 0.0023045011 -0.048109718 -0.008784559 -0.035309523 -0.034387942
-0.03899597 0.008727029 -0.03781048 0.014092378 -0.07018637 -0.04609237 -0.024816666 -0.057276372
0.0013809651 -0.047786392 0.009140059 -0.039156348 0.06886584 0.065074734 0.0626074 -0.041670978
0.004382901 0.060623415 0.027133591 -0.06519151 0.04700253 -0.01027412 0.060913898 -0.03840988
-0.06985856 -0.0051794276 0.07041573 -0.06712149 0.037874714 -0.034292396 -0.030121848 0.030113801
-0.010396354 -0.04315932 0.067284815 -0.043378472 0.0547337 -0.0025073513 0.03258495 -0.038869992
-0.06628645 -0.028333321 -0.0248775 0.031277083 0.021125361 0.04091441 -0.030959483 -0.038735107
-0.03579494 -0.038668826 0.025999568 -0.023733068 0.017190062 -0.022269301 0.06936022 -0.012602977
00000000: 66a2 8bbd c772 99bb ccf5 3ebc 02ba 76bd
00000010: b463 85bd b131 8f3b 384f b8bc eafb c6bc
00000020: be52 bdbc 9528 6c3d 71e4 453d 55b8 77bc
00000030: 619b 1cbd 9541 953b 2808 4cbc 296a 683c
00000040: 1e6c 29bd c9fb 3a3d 6af1 7cbd f067 8abc
00000050: f8fe 0abc c94c d2bc ad85 5cbd 2364 11bd
00000060: f197 8c3d 81c9 10bc 1845 173c fc65 49bc
00000070: baa2 a7bc 4b2c 61bd b562 8c3d d295 fbbc
00000080: 6821 06bd 259f 9f3b 585e 8f3d 3746 9ebc
00000090: a626 713d 193b 393d 23b8 6d3c 8ccd 43bd
000000a0: 712b 82bc a251 2a3d fe79 51bd 0da8 a1bc
000000b0: 1b8d 20bd 6987 98bc 2b1e 79bb 5c78 85bc
000000c0: f065 ccbc e75a 613d a325 bdbc 6c0f b8bc
000000d0: 414f 543a 5717 8cbd f67f 8abc 993e f8bb
000000e0: bcc9 b73c d0fc 68bc e3e6 863d 530b 233d
000000f0: 00ce d339 3d03 49bc ca6c 05bd c8db cf3c
00000100: 12ff 1bbd c315 8a3d 2069 0c3b a528 993b
00000110: 627a b43c 94ea 56bd 21dd c53c 00ce 273d
00000120: e6d4 4d3d 6376 ec3c ae33 5c3d 4f34 dc3c
00000130: 5a20 0cbd 39b4 d53c 5a5d 6bbd ea5a 43bd
00000140: 6249 12bd e105 353c 2d7a 52bd b526 02bd
00000150: cd26 32bb 7c6c 4cbc cca7 283d 39b4 45bd
00000160: acc8 79bc 4e10 06bd 5680 8c3d 6023 c2bb
00000170: 4812 85bc 1cea 4d3d 3d00 893d 245c 713c
00000180: 8096 493d 322c a1bc 7429 543d f084 93bb
00000190: c091 163b 98b7 6a3d c09f 42bb 8022 63bd
000001a0: 3078 b4bc 71f5 73bd e175 0d3d aeda 1b3d
000001b0: 06bc 8abd e0f9 78bb c985 de3c 5f82 01bc
000001c0: 1b45 69bd 9ea4 4cbd 185a d7bc 405c 9c3a
000001d0: f705 8d3d e43f 5b3d 98a3 50bd 8039 39ba
000001e0: 23f8 833d 36ed 183d 53ac 853d 121b e0bc
000001f0: 98ac 3a3d 1d90 87bc f823 5b3d 1044 263d
00000200: f7cd 843d 6bd7 bc3c 20ec 423c 2f23 583d
00000210: 2b60 61bd 274b 7d3d f7e4 20bc 0994 483d
00000220: 3d69 ebbc 109e a23b af9c 19bd fa2e e6bc
00000230: 61d4 523c 3eb4 dcbc 69c5 28bd 9073 9d3c
00000240: 2351 8a3d 3dd1 86bd e38e 1d3d 188c 44bc
00000250: 00f0 2d3a 849d 103d 582d 543d 187a d93c
00000260: 1a36 993c e9a8 5abd b847 1fbd 6ee5 6f3d
00000270: d661 7e3d 65ae 54bd 1989 853d 075d 3fbd
00000280: 8afa 713d 3657 2fbc 83ce 79bd 3c20 2e3d
00000290: f17d 71bd a94c 453c e75b 47bd 8409 84bd
000002a0: b97a 8fbd 30a8 af3b b26f 85bc 9e6e 4d3d
000002b0: 2c1b 33bd 70f3 98bc bdc2 75bd 8707 04bd
000002c0: 9748 853d 7822 fbbc ef86 65bd 9e2f 5fbd
000002d0: 785c 96bb 2ecd 3bbd b0a1 473c 3ccc 333d
000002e0: 73f2 323d 8ff6 183d 4b60 bbba b481 5ebd
000002f0: be7a 643d e07d 0c3b ba50 4a3d e865 d93c
00000300: caae 2f3d 10d4 c4bb 726b 7d3c 1d07 173b
00000310: b20e 45bd 1ced 0fbc b8a0 10bd 5fda 0cbd
00000320: 3dba 1fbd d0fb 0e3c 29df 1abd b8e3 663c
00000330: dfbd 8fbd 5acb 3cbd 524c cbbc a19a 6abd
00000340: 8001 b53a aabb 43bd 30c0 153c 6862 20bd
00000350: 8909 8d3d e745 853d 4f38 803d 30af 2abd
00000360: 709e 8f3b 4250 783d 4447 de3c 2083 85bd
00000370: ba85 403d c854 28bc da80 793d ae53 1dbd
00000380: 0112 8fbd 30b8 a9bb 1f36 903d fe76 89bd
00000390: 8422 1b3d 2f76 0cbd 18c2 f6bc 38b1 f63c
000003a0: 7855 2abc d4c7 30bd 9fcc 893d a0ad 31bd
000003b0: 7230 603d 6052 24bb cc77 053d 2436 1fbd
000003c0: 31c1 87bd 481b e8bc e6cb cbbc 661c 003d
000003d0: 180f ad3c de95 273d be9e fdbc b4a8 1ebd
000003e0: b79d 12bd 3463 1ebd 0cfd d43c da6b c2bc
000003f0: 2cd2 8c3c 1c6e b6bc bb0c 8e3d b87c 4ebc

bias f4 [200]
-0.020706784 -0.028108526 -0.049629927 -0.0048180846 -0.01929766 -0.04517547 0.03829283 -0.03955733
0.005789526 0.025807165 0.040296007 0.050441593 -0.06869323 -0.052970853 -0.049893014 -0.06612161
0.060858868 -0.049927868 -0.039740797 -0.027287867 -0.017879361 0.04979363 0.03453049 0.045662537
-0.0031302494 -0.06828423 0.038685918 0.0019248795 0.03937281 -0.008665301 0.053231448 -0.069975056
0.010389434 0.019872494 0.06680162 0.034443174 -0.038469993 0.050341927 -0.06102054 0.009385161
-0.021854265 0.048748765 0.011240774 0.06821745 -0.047897458 -0.021400766 -0.015171016 -0.0623507
-0.0071529504 0.0012412593 0.056339942 -0.022287222 0.008451815 0.021434106 -0.03016574 0.013365811
0.0035676467 0.029370496 -0.06560722 0.024415165 -0.04301488 0.062448446 -0.01854376 0.0647405
-0.025710322 -0.04380173 -0.022537988 -0.05832704 -0.05964826 0.06386284 0.016138397 -0.062727034
-0.012058593 -0.049484517 -0.07034265 0.0050290865 -0.068128526 -0.064315 0.06380057 -0.06723573
-0.04314459 -0.0041402415 -0.008689967 0.05543952 0.041767452 0.031920522 0.05429245 -0.051110853
-0.01152515 0.058155242 0.03852892 -0.033393472 -0.05157033 0.020109018 0.06653888 -0.06390395
0.0045760944 -0.046940506 -0.0071254447 -0.0011997379 -0.062196705 0.01780723 0.024242684 0.017260846
0.06577736 -0.013172357 -0.060354225 -0.056965582 0.00033011247 0.06005437 0.046962403 0.026039897
-0.050634027 0.06776238 -0.017795809 0.0057372823 -0.029158482 -0.0579354 -0.036729816 -0.067254595
0.021822881 0.07084733 -0.06454896 0.053935423 0.031235993 -0.012803473 -0.007982268 0.06898227
0.066325046 -0.06622383 0.03126789 0.030678399 -0.03922658 0.03185109 -0.041041695 0.022926306
-0.013819959 0.065220475 0.04659883 -0.064019196 0.0611214 0.06674051 0.04911875 0.054652482
-0.033866283 0.04304481 0.017765325 -0.030832857 0.06448068 -0.0055936985 -0.03503594 0.042945556
-0.05905449 -0.016894015 0.061970517 0.043071095 -0.0036352712 0.0054960623 0.06594282 0.06531954
0.039974317 0.006917596 -0.003149271 0.03769069 0.051957313 0.063340284 0.03378232 -0.03478816
-0.007819466 0.06865743 -0.04411369 0.041060954 0.048419207 0.058165383 -0.026968902 0.033320695
-0.03702195 -0.041749734 -0.023722976 -0.02538583 -0.02133423 -0.015664391 0.061952595 -0.030208841
0.01006709 0.0021082077 0.04837609 -0.062428664 -0.013325139 -0.06319041 -0.020838104 0.015039676
-0.050722428 0.025616737 0.016189985 -0.059459824 0.03130015 0.051997624 -0.04250288 -0.019204304
00000000: 46a1 a9bc da43 e6bc c048 4bbd 06e1 9dbb
00000010: 2016 9ebc ea09 39bd f1d8 1c3d de06 22bd
00000020: 10b6 bd3b 8c69 d33c 6d0d 253d d89b 4e3d
00000030: 09af 8cbd f7f7 58bd 9e5c 4cbd c46a 87bd
00000040: 2647 793d 2a81 4cbd 3fc7 22bd ce8a dfbc
00000050: bd77 92bc 68f4 4b3d d86f 0d3d a408 3b3d
00000060: df24 4dbb 9ad8 8bbd 2075 1e3d 3d4c fc3a
00000070: 6245 213d e8f8 0dbc 3809 5a3d 154f 8fbd
00000080: 7238 2a3c a4cb a23c 4acf 883d 4914 0d3d
00000090: b692 1dbd 5633 4e3d acf0 79bd 38c4 193c
000000a0: b707 b3bc c9ac 473d 392b 383c 97b5 8b3d
000000b0: 2030 44bd a950 afbc da8f 78bc 7363 7fbd
000000c0: 4c63 eabb c0b1 a23a b6c4 663d b193 b6bc
000000d0: 7b79 0a3c 9496 af3c 241e f7bc 46fc 5a3c
000000e0: 2ecf 693b 659a f03c 145d 86bd 5002 c83c
000000f0: 5f30 30bd f1c9 7f3d 15e9 97bc ab96 843d
00000100: 749e d2bc 7169 33bd 96a1 b8bc 56e8 6ebd
00000110: bc51 74bd 85ca 823d ac34 843c 0877 80bd
00000120: 6891 45bc 47b0 4abd cf0f 90bd 09cb a43b
00000130: f886 8bbd 95b7 83bd e0a9 823d e3b2 89bd
00000140: 62b8 30bd ddaa 87bb 5d60 0ebc 8d14 633d
00000150: 5914 2b3d 18bf 023d c361 5e3d 9d59 51bd
00000160: fcd3 3cbc 3134 6e3d 80d0 1d3d 98c7 08bd
00000170: 693b 53bd abbb a43c 8945 883d 13e0 82bd
00000180: 10f3 953b b044 40bd 907c e9bb 8640 9dba
00000190: f9c1 7ebd 78e0 913c 9898 c63c 9e66 8d3c
000001a0: 48b6 863d dfd0 57bc fe35 77bd be54 69bd
000001b0: f212 ad39 92fb 753d a65b 403d 9f51 d53c
000001c0: a065 4fbd 01c7 8a3d 84c8 91bc d0ff bb3b
000001d0: c5dd eebc ac4d 6dbd 0172 16bd c7bc 89bd
000001e0: e6c5 b23c 6818 913d 3f32 84bd 64eb 5c3d
000001f0: a0e2 ff3c a8c5 51bc 0fc8 02bc 9446 8d3d
00000200: 6dd5 873d 5ca0 87bd c212 003d 4451 fb3c
00000210: 0dac 20bd 4a76 023d 561b 28bd f3cf bb3c
00000220: 1c6d 62bc 5092 853d 6ade 3e3d 7f1c 83bd
00000230: 6f5a 7a3d 40af 883d be30 493d 48db 5f3d
00000240: 5fb7 0abd c14f 303d 9688 913c 3095 fcbc
00000250: 720e 843d 584b b7bb d981 0fbd aee7 2f3d
00000260: 1fe3 71bd 5165 8abc ccd4 7d3d 516b 303d
00000270: bb3d 6ebb 5018 b43b 070d 873d 40c6 853d
00000280: 1cbc 233d 00ad e23b 0064 4ebb 8e61 1a3d
00000290: 31d1 543d 8db8 813d 545f 0a3d 087e 0ebd
000002a0: 381d 00bc 449c 8c3d 8eb0 34bd 882f 283d
000002b0: 3853 463d d33e 6e3d e3ed dcbc 487b 083d
000002c0: 54a4 17bd c501 2bbd b056 c2bc f2f5 cfbc
000002d0: 20c5 aebc 9c52 80bc 01c2 7d3d 8878 f7bc
000002e0: 70f0 243c db29 0a3b 0226 463d 33b5 7fbd
000002f0: af51 5abc f969 81bd acb4 aabc f968 763c
00000300: 52c2 4fbd 31da d13c dca0 843c 258c 73bd
00000310: 9634 003d 76fb 543d 8017 2ebd 5852 9dbc

weight f4 [1, 200]
0.047917012 0.007223569 -0.04187411 0.055130225 -0.04519685 -0.050335042 -0.06452687 -0.061304744
0.034716114 0.060286097 0.0050366526 -0.0082090795 -0.066060595 -0.06078306 -0.030704089 0.029338343
0.021182306 0.062310778 -0.0535536 -0.042819448 -0.06747686 0.011519669 -0.05849679 0.060323276
-0.060875922 0.036325842 -0.0604899 0.029271355 -0.04678275 -0.011832483 -0.040490933 -0.019410446
0.024387 -0.028535321 0.038268346 -0.049593844 -0.024251696 -0.060128964 -0.04442192 -0.0202863
0.056714807 -0.063844986 0.027370846 0.036013015 -0.007779993 0.0023870762 0.025566706 -0.050098665
-0.06287088 -0.010828588 -0.005750409 -0.02728536 0.0668924 0.04565973 -0.043072082 0.043672584
-0.04063958 -0.046936262 0.010291941 -0.03634876 0.011202365 0.037835944 0.06220055 -0.013109997
0.010724008 -0.053981762 -0.04381267 -0.039487287 -0.016503904 0.05249521 -0.027454145 -0.051447496
0.002250567 0.03940181 0.058535896 -0.0360929 -0.0011406845 -0.06204582 0.042836476 -0.023385298
-0.019009493 0.033044722 0.01058154 0.039821055 -0.027767017 0.040396616 0.058042563 -0.030281525
-0.031114288 0.04580732 0.03767377 0.008827775 -0.0073706955 -0.063500114 0.019615397 0.01653245
0.04200486 -0.0036068112 -0.058198906 0.06443197 0.054179505 -0.01236457 -0.06214925 -0.048450947
-0.05152787 -0.06593901 0.04673075 0.0066620857 -0.06718516 0.0337371 -0.030242648 0.02320578
0.06624329 0.017386373 -0.0041336864 0.0043119416 -0.029455245 -0.04072589 -0.010025285 -0.009095139
0.03706296 -0.041231617 0.024868183 -0.06883753 0.036936894 -0.0075572655 0.05713926 0.06703656
-0.034041565 0.062416397 -0.043711085 -0.04459311 0.030489407 -0.0008988455 -0.011653706 0.012988716
-0.015714724 0.061936304 -0.009245809 -0.038411073 0.05592086 -0.025567578 0.0327776 0.015746905
0.048693627 0.034216423 -0.053820636 0.06971461 0.038431972 0.05235689 -0.06727357 -0.06356938
0.04525356 0.01561074 0.00014913584 -0.03904228 0.050650384 0.05311153 -0.03723601 -0.04718491
0.034598224 -0.0053884834 0.034386203 -0.0026977698 -0.023265062 0.0054931142 0.034331903 0.019495472
-0.06720326 -0.05778734 0.043257263 0.050318316 -0.06502423 0.059239764 -0.04222689 0.0423401
0.01746664 -0.015683813 0.06904952 -0.00349392 -0.022111762 0.060838424 -0.04034895 -0.037922043
-0.056597296 -0.050210442 -0.028718706 0.035130166 0.014838477 -0.06288861 -0.06749949 0.021298071
0.012255453 0.0484836 -0.06843251 0.008477271 -0.052659117 -0.04463508 0.016989015 0.034458004
00000000: a144 443d b0b3 ec3b 3084 2bbd 3bd0 613d
00000010: 5520 39bd 1e2c 4ebd aa26 84bd af1a 7bbd
00000020: 7c32 0e3d 8eee 763d 810a a53b 607f 06bc
00000030: c74a 87bd a8f7 78bd 2487 fbbc f756 f03c
00000040: 8486 ad3c 9639 7f3d 055b 5bbd 7263 2fbd
00000050: 4f31 8abd febc 3c3c 549a 6fbd 8a15 773d
00000060: 0859 79bd 68ca 143d 42c4 77bd 7bca ef3c
00000070: 459f 3fbd 08dd 41bc d2d9 25bd a802 9fbc
00000080: 3fc7 c73c e8c2 e9bc 45bf 1c3d ea22 4bbd
00000090: 7eab c6bc ca49 76bd c2f3 35bd 742f a6bc
000000a0: c94d 683d 29c1 82bd d338 e03c 6282 133d
000000b0: 50ef febb 7e70 1c3b 4571 d13c 4234 4dbd
000000c0: 73c2 80bd 646a 31bc ed6d bcbb 8c85 dfbc
000000d0: e2fe 883d b205 3b3d 5a6c 30bd 06e2 323d
000000e0: b075 26bd 3d40 40bd 889f 283c 70e2 14bd
000000f0: 208a 373c ddf9 1a3d 01c6 7e3d 50cb 56bc
00000100: c0b3 2f3c fb1b 5dbd ea74 33bd 6cbd 21bd
00000110: 3233 87bc 3805 573d 84e7 e0bc 9cba 52bd
00000120: 407e 133b cb63 213d 56c3 6f3d 26d6 13bd
00000130: 0583 95ba c223 7ebd 4d75 2f3d 8692 bfbc
00000140: ccb9 9bbc e759 073d 325e 2d3c 671b 233d
00000150: a877 e3bc ec76 253d 0abe 6d3d f610 f8bc
00000160: 64e3 febc 75a0 3b3d d04f 1a3d 5fa2 103c
00000170: e085 f1bb 590c 82bd 78b0 a03c 106f 873c
00000180: 4a0d 2c3d 4060 6cbb fa61 6ebd e9f4 833d
00000190: 54eb 5d3d c494 4abc 3690 7ebd 8074 46bd
000001a0: e30e 53bd 080b 87bd be68 3f3d a04d da3b
000001b0: 6098 89bd ea2f 0a3d 6ebf f7bc 0c1a be3c
000001c0: 90aa 873d de6d 8e3c e073 87bb 304b 8d3b
000001d0: 204c f1bc 31d0 26bd 1841 24bc c703 15bc
000001e0: 55cf 173d 7ce2 28bd 5cb8 cb3c b1fa 8cbd
000001f0: 244b 173d f0a2 f7bb db0a 6a3d 774a 893d
00000200: 2b6f 0bbd 56a8 7f3d 650a 33bd 44a7 36bd
00000210: ecc4 f93c 80a0 6bba 30ef 3ebc a0ce 543c
00000220: 2abc 80bc ecb0 7d3d bc7b 17bc ee54 1dbd
00000230: 460d 653d 1973 d1bc ce41 063d a7ff 803c
00000240: f872 473d 8526 0c3d 0773 5cbd 89c6 8e3d
00000250: d86a 1d3d 2e74 563d bac6 89bd aa30 82bd
00000260: cc5b 393d 30c4 7f3c 5961 1c39 ccea 1fbd
00000270: c776 4f3d 7a8b 593d c984 18bd f744 41bd
00000280: deb6 0d3d e091 b0bb 8cd8 0c3d 11cd 30bb
00000290: 5f96 bebc 95ff b33b 9c9f 0c3d f8b4 9f3c
000002a0: dda1 89bd 6bb2 6cbd 872e 313d 941a 4e3d
000002b0: 6c2b 85bd 65a5 723d 1af6 2cbd d06c 2d3d
000002c0: 3316 8f3c 577b 80bc d669 8d3d 40fa 64bb
000002d0: ba23 b5bc b631 793d f144 25bd 2554 1bbd
000002e0: 91d2 67bd 77a9 4dbd 7e43 ebbc a6e4 0f3d
000002f0: 151d 733c becb 80bd 2c3d 8abd 4b79 ae3c
00000300: 18cb 483c bd96 463d 5826 8cbd 40e4 0a3c
00000310: 16b1 57bd 46d3 36bd 8c2c 8b3c d623 0d3d
