Python_HY/LungCancer/trained_model/Linear_200_0.0001.pth (torch, 178215 bytes, 5 tensors)

weight f4 [200, 15]
0	0xbe7532f5	-0.2394522
1	0xbe4384fc	-0.19093698
2	0xbe361d72	-0.1778467
3	0xbca4f8c0	-0.020138144
4	0xbe69da05	-0.22837074
5	0xbe65d556	-0.22444662
6	0xbe6b69b2	-0.22989538
7	0x3dbdb2e0	0.09262633
8	0xbbab9ec0	-0.0052374303
9	0xbe3a730f	-0.18207954
10	0x3e81bfb9	0.25341585
11	0x3df9f558	0.12204999
12	0xbe402d00	-0.18767166
13	0x3e6fd320	0.23420382
14	0xbe135642	-0.14388373
15	0x3e64c9b6	0.22342572
16	0xbd846582	-0.064646736
17	0xbe19cb06	-0.15018854
18	0x3e267332	0.16254881
19	0x3d162ac0	0.036661863
20	0x3c7818a0	0.01514259
21	0x3e007bd6	0.1254724
22	0xbe080945	-0.13284786
23	0x3e66c5a2	0.22536328
24	0xbcb7cf20	-0.022437632
25	0x3e0e09fc	0.13870996
26	0xbe61bd51	-0.22044875
27	0xbe1f510e	-0.15558264
28	0xbd82adc8	-0.063808024
29	0x3d986e30	0.074428916
30	0xbe0d39dd	-0.13791604
31	0xbe308d66	-0.17241439
32	0x3dcb87d4	0.099380165
33	0x39e32997	0.000433278
34	0xbe79ffc6	-0.24413976
35	0x3e116c36	0.14201435
36	0xbd900fa0	-0.0703423
37	0xbde46b1c	-0.11153242
38	0xbdfb6bca	-0.122764185
39	0x3dc49ed8	0.096006095
40	0xbe805bb3	-0.2506996
41	0x3e34248c	0.17592067
42	0xbd8d12f0	-0.06888378
43	0xbe202622	-0.15639547
44	0x3d6b1970	0.057397306
45	0x3d27b718	0.040946096
46	0xbd945ea4	-0.07244614
47	0x3e663596	0.22481379
48	0x3e364b7c	0.17802233
49	0xbd840de2	-0.064479604
50	0x3d7e24b8	0.062046736
51	0xbde5d0c8	-0.112214625
52	0xbd88fe30	-0.066891074
53	0xbdf6c3fe	-0.12049101
54	0xbde7d3a8	-0.11319667
55	0xbce28af8	-0.027654156
56	0x3dbe8690	0.093030095
57	0xbe180cf2	-0.14848688
58	0xbdc99da2	-0.09844519
59	0x3db4dc6c	0.08831105
60	0x3e71c220	0.23609209
61	0xbe732cb4	-0.23747522
62	0xbe36a1ac	-0.1783511
63	0x3da42968	0.0801571
64	0x3e5e1920	0.21689272
65	0xbe1119dd	-0.14170022
66	0xbc786f70	-0.0151632875
67	0x3cc3ce80	0.023902178
68	0x3e2dbb80	0.16966057
69	0xbdb92a82	-0.09041311
70	0xbe011a1f	-0.1260762
71	0xbe395141	-0.18097402
72	0x3e7fdf8a	0.24987617
73	0x3e6de83e	0.23233125
74	0xbe802d6b	-0.2503465
75	0xbe0f8031	-0.14013745
76	0x3d6abf37	0.057311263
77	0xbe668df5	-0.2251509
78	0xbd01434a	-0.031558312
79	0x3e3f58c4	0.18686205
80	0xbe33a7c0	-0.1754446
81	0xbe122257	-0.14270912
82	0x3d08d8e7	0.03340998
83	0x3e1460fc	0.14490122
84	0x3db8c2dc	0.090215415
85	0x3d422ce1	0.04740608
86	0x3e2d446c	0.16920632
87	0x3d0995c3	0.03359009
88	0x3cca2895	0.024677554
89	0x3e798806	0.24368295
90	0x3da029fc	0.07820508
91	0x3e636a0e	0.22208425
92	0xbde4bcec	-0.111688465
93	0xbdf85164	-0.12124899
94	0x3de0f38c	0.10983953
95	0x3df54fd4	0.11978117
96	0x3e183c26	0.14866695
97	0x3e83be6b	0.25731215
98	0x3e6ef194	0.23334342
99	0x3d909df0	0.07061374
100	0x3c196180	0.009361625
101	0xbe005dda	-0.12535802
102	0x3e626a88	0.22110951
103	0xbdb32936	-0.08748095
104	0x3dc81d1c	0.09771177
105	0x3dcef618	0.101055324
106	0x3e6c65f8	0.23085773
107	0x3e69c324	0.22828346
108	0x3df7847b	0.120858155
109	0xbdb7fe2c	-0.08984026
110	0xbdb9fd6e	-0.09081541
111	0xbe7215f6	-0.2364119
112	0x3d9e18eb	0.077195965
113	0x3e33bb2c	0.17551869
114	0x3d144c11	0.036205355
115	0x3d1acb10	0.03779131
116	0x3e24c99a	0.1609253
117	0x3d3f2ea8	0.046675354
118	0x3e335cf8	0.17515934
119	0x3dfe782b	0.12425264
120	0xbe4ac168	-0.19800341
121	0x3e7bb5c3	0.24581055
122	0x3e59b33c	0.21259779
123	0x3dfd112c	0.12356791
124	0xbdbb1322	-0.09134509
125	0x3e817a01	0.25288394
126	0xbd3343ea	-0.04376594
127	0xbcc1a4f2	-0.023638222
128	0x3d8a4d5c	0.067530364
129	0xbd028e77	-0.031874146
130	0xbdc5896e	-0.09645353
131	0x3debcd9c	0.11513826
132	0x3e2658b2	0.16244772
133	0xbdcf1b30	-0.101126075
134	0x3df26f50	0.118376374
135	0x3e15b888	0.14621174
136	0xbe60a7ea	-0.21939054
137	0xbd4ca87c	-0.049965367
138	0xbbead840	-0.0071668923
139	0xbd8b34ea	-0.06797202
140	0xbdb38910	-0.08766377
141	0x3db1d77c	0.086836785
142	0xbe0e6d21	-0.13908817
143	0x3cc14ba0	0.023595631
144	0x3c598800	0.013277054
145	0x3e136cce	0.14396974
146	0x3e12766c	0.14302987
147	0xbb1396d7	-0.0022520327
148	0xbe68e4b2	-0.2274349
149	0x3e3de18a	0.18543068
150	0xbd9bf450	-0.07614958
151	0x3e54a100	0.20764542
152	0x3e13258a	0.14369789
153	0xbe773b7a	-0.24143782
154	0x3e119060	0.14215231
155	0xbe4641b2	-0.19360998
156	0xbdb0729a	-0.086156085
157	0x3c895b4e	0.01676717
158	0xbe4d324c	-0.20038718
159	0xbda1b6b8	-0.07896179
160	0x3da2a4a4	0.07941559
161	0xbd331f17	-0.04373082
162	0xbd66cba0	-0.056346536
163	0x3e202458	0.15638864
164	0x3e16eb42	0.14738181
165	0x3cc94910	0.024570972
166	0xbd5d3e13	-0.054014277
167	0x3e43327a	0.19062224
168	0xbe82b21f	-0.2552652
169	0xbc1f3f8f	-0.009719743
170	0xbe15e568	-0.14638293
171	0xbd3803e0	-0.04492557
172	0x3da811a8	0.08206493
173	0xbe2b59af	-0.1673343
174	0x3e1816e8	0.14852488
175	0x3e81a367	0.2531998
176	0x3e13f526	0.14448985
177	0x3e105970	0.14096618
178	0x3e7fcdca	0.24980846
179	0xbe424bc6	-0.18974218
180	0xbe18a99d	-0.14908452
181	0x3909f800	0.00013157725
182	0x3d34dfb0	0.044158638
183	0x3e3d5430	0.18489146
184	0x3e7261dc	0.23670143
185	0x3e372c8c	0.17888087
186	0x3d81756c	0.063212246
187	0x3c2d9600	0.010594845
188	0x3e63b104	0.22235495
189	0x3e4a6114	0.19763595
190	0x3e798562	0.24367288
191	0xbe199c84	-0.15001112
192	0x3d88eeec	0.06686196
193	0xbe076575	-0.13222297
194	0xbde5c3ce	-0.112189874
195	0x3e1f8be2	0.15580705
196	0xbdcf1fe2	-0.10113503
197	0x3e842cf3	0.25815544
198	0xbc591ba0	-0.013251215
199	0x3e22796c	0.15866631
200	0xbdc29e02	-0.09502794
201	0xbe2ffbb4	-0.17185861
202	0x3cee8290	0.029114991
203	0xbc3e3130	-0.011608407
204	0x3d8df78c	0.069319814
205	0x3df3fdb0	0.119136214
206	0xbe563d70	-0.20921874
207	0x3e3464cc	0.17616576
208	0xbe590898	-0.21194685
209	0x3e097fde	0.13427684
210	0x3e668d52	0.22514847
211	0xbe3d0cb2	-0.18461874
212	0x3e833221	0.25624183
213	0x3e1d3880	0.15353584
214	0xbe7509f0	-0.23929572
215	0xbc75dd20	-0.015006334
216	0x3d80a2c0	0.06281042
217	0x3d0b8128	0.03405872
218	0xbc5defa0	-0.013545901
219	0xbc139bf0	-0.009009346
220	0xbe511506	-0.20418176
221	0x3e30fc8e	0.17283842
222	0xbe17da77	-0.14829431
223	0x3d6c28c8	0.05765608
224	0xbd1a17dc	-0.03762041
225	0xbe25903c	-0.16168302
226	0x3e050e8e	0.12993833
227	0xbd929f08	-0.07159239
228	0x3e80e9e5	0.25178447
229	0x3dc925d4	0.09821668
230	0x3cb56210	0.022141486
231	0xbdc13318	-0.094335735
232	0x3e5fd5ca	0.21858898
233	0x3b5b1600	0.003342986
234	0xbe426914	-0.18985397
235	0x3e44753a	0.19185343
236	0xbdb6607a	-0.0890512
237	0x3ca0fd90	0.019652158
238	0x3dcd967c	0.10038468
239	0x3dad4e68	0.084622204
240	0xbe4c6963	-0.19962077
241	0x3e253da8	0.16136801
242	0x3d545bf8	0.05184552
243	0xbddb4cbc	-0.10707995
244	0x3db8ddf8	0.09026712
245	0xbe59e752	-0.21279648
246	0x3db49424	0.08817318
247	0x3e5530be	0.20819375
248	0x3e34c0ba	0.17651644
249	0xbe5d8e32	-0.21636274
250	0xbe7ebd28	-0.24876845
251	0x3e00846c	0.12550515
252	0xbe555313	-0.20832472
253	0xbe2fb2e8	-0.17158091
254	0x3e74911a	0.23883477
255	0x3c058de2	0.008151503

bias f4 [200]
0	0x3d3bd6a8	0.04585901
1	0xbe1344c6	-0.14381704
2	0x3da9bea1	0.08288313
3	0xbe03628d	-0.12830563
4	0xbe75bec2	-0.2399855
5	0x3e69bbaa	0.22825494
6	0xbccbd318	-0.02488093
7	0xbd18dc38	-0.037319392
8	0x3e5dc94a	0.21658817
9	0x3de68059	0.11254949
10	0xbe0b6751	-0.13613631
11	0x3daf0600	0.08546066
12	0xbd06238c	-0.032748744
13	0xbe2526fc	-0.16128153
14	0xbd1b7600	-0.03795433
15	0xbe323e2c	-0.17406529
16	0x3e6e37fe	0.23263547
17	0x3e7a464f	0.24440883
18	0xbe068c56	-0.13139471
19	0xbc882e00	-0.016623497
20	0xbe519a75	-0.20469077
21	0xbe18718d	-0.14887066
22	0xbe1dace7	-0.15397988
23	0xbd3c2aab	-0.04593913
24	0xbdf01242	-0.117222324
25	0xbe065ddc	-0.13121742
26	0xbd695ad4	-0.056971386
27	0x3bc3120e	0.00595308
28	0x3def8446	0.11695151
29	0x3e0ae9ee	0.135658
30	0x3c5a7b0d	0.013335002
31	0x3e625c26	0.22105464
32	0x3dfed5db	0.124431334
33	0xbd03ac8c	-0.032146975
34	0x3dea4c92	0.11440386
35	0xbe7f0c0d	-0.24906941
36	0xbe5a781b	-0.21334879
37	0xbd962b02	-0.07332422
38	0x3e0f26bb	0.13979618
39	0xbddf0194	-0.10888973
40	0x3e0a5357	0.13508354
41	0xbe05d3cc	-0.13069075
42	0xbdd6e746	-0.10493331
43	0x3e30bf74	0.17260534
44	0x3e140af5	0.14457305
45	0xbd20b195	-0.039231855
46	0xbd352744	-0.0442269
47	0x3e352f76	0.17693886
48	0xbdd2aca7	-0.10286837
49	0xbdf478d4	-0.11937109
50	0xbc9d071a	-0.019168425
51	0x3d995595	0.074870266
52	0x3e5614bc	0.20906347
53	0xbd98a0a4	-0.07452515
54	0xbdae0e38	-0.08498806
55	0xbe02fa39	-0.12790765
56	0x3d176ed0	0.036970913
57	0xbe3c4a16	-0.18387637
58	0xbcd929d6	-0.026509207
59	0xbe710963	-0.23538737
60	0xbe542f4d	-0.20721169
61	0x3cc0e42d	0.023546303
62	0xbd7866e0	-0.060644984
63	0xbdd76270	-0.10516822
64	0x3da23fba	0.07922311
65	0xbd7cee1c	-0.061750516
66	0xbd8b4550	-0.0680033
67	0x3e66102e	0.2246711
68	0xbe32cfd9	-0.174621
69	0x3e808aee	0.25105995
70	0x3df37dea	0.118892506
71	0x3e20d1cf	0.15705036
72	0xbe26cc2a	-0.1628882
73	0x3e1850c1	0.14874555
74	0x3e0afac9	0.1357223
75	0xbdc82b7a	-0.097739175
76	0xbe8092a2	-0.25111872
77	0x3b705100	0.0036669374
78	0x3e5fde22	0.2186208
79	0x3e42e62c	0.19033116
80	0xbe027d63	-0.12743144
81	0x3d2aa06f	0.041656908
82	0x3e35fa25	0.17771204
83	0x3e1f5bd2	0.1556237
84	0x3ce5fb37	0.02807389
85	0xbc100389	-0.008789905
86	0xbe43cbaa	-0.1912066
87	0x3df43382	0.11923887
88	0x3cd43e48	0.025908604
89	0x3e19bd32	0.15013579
90	0x3e3e0763	0.18557505
91	0xbddc9751	-0.10771049
92	0xbd0a58e4	-0.03377618
93	0x3e0cdda4	0.13756424
94	0x3e0cb0c8	0.13739312
95	0x3e05e97d	0.1307735
96	0xbe1f8b18	-0.15580404
97	0x3e36c985	0.17850311
98	0x3e027ac7	0.12742148
99	0xbe071483	-0.13191418
100	0x3dc234ef	0.094827525
101	0xbc6491b0	-0.01395075
102	0xbcbc95b9	-0.023020612
103	0x3e5e647a	0.21718016
104	0xbdc7632e	-0.09735714
105	0x3d9c4c9d	0.076318
106	0xbdb7226e	-0.08942114
107	0xbe06efdd	-0.13177438
108	0x3dba6e28	0.09103042
109	0xbd85f226	-0.06540327
110	0xbe065e65	-0.13121946
111	0xbd7de560	-0.061986327
112	0x3d43cec8	0.047804624
113	0x3bdceb00	0.0067418814
114	0x3e1d96eb	0.15389602
115	0x3e3fd047	0.18731795
116	0x3d9b121c	0.075718135
117	0xbe71d56a	-0.23616567
118	0x3e490524	0.19630867
119	0xbd052e30	-0.03251475
120	0xbe527df4	-0.2055586
121	0x3e5439d7	0.20725189
122	0x3da360d9	0.079774566
123	0xbe509226	-0.20368251
124	0x3da3b18e	0.0799285
125	0xbbdb2f4b	-0.0066889874
126	0x3e51a619	0.20473517
127	0x3e006b37	0.12540899
128	0x3e444b8d	0.19169445
129	0x3e0b64b0	0.13612628
130	0xbcfa8c8d	-0.030584598
131	0xbdd37dfe	-0.103267655
132	0xbe003e47	-0.12523757
133	0xbe64b7f2	-0.22335795
134	0x3d24a335	0.04019471
135	0x3bfa3a5b	0.007636351
136	0xbe5ce907	-0.21573268
137	0xbb845c2f	-0.0040393095
138	0x3dd473e9	0.103736706
139	0x3d0030b5	0.03129645
140	0x3d86b5b0	0.06577623
141	0x3d97cfff	0.07412719
142	0x3cfaa860	0.030597866
143	0x3e226f82	0.1586285
144	0xbd023310	-0.03178698
145	0x3d72ddd1	0.05929357
146	0x3e6209cc	0.2207405
147	0xbe7f5fd6	-0.24938902
148	0x3dce7957	0.100817375
149	0x3c45bf8d	0.012069595
150	0x3e82c74f	0.25542685
151	0x3e09922a	0.13434663
152	0xbd181834	-0.037132457
153	0xbdc01d24	-0.09380558
154	0xbe655ce3	-0.22398715
155	0x3c24761c	0.010037925
156	0xbde8fd4c	-0.113764375
157	0xbe34c080	-0.17651558
158	0x3d988a89	0.074482985
159	0xbca9f118	-0.020744845
160	0xbe27aa2a	-0.16373506
161	0x3e6a7a66	0.22898254
162	0x3dd8ea06	0.105915114
163	0xbdaf1f4c	-0.08550891
164	0xbe016a15	-0.12638123
165	0x3e3a203e	0.18176362
166	0x3e80d543	0.25162706
167	0xbd79aae0	-0.060953975
168	0xbe704892	-0.23465183
169	0xbe0ce47d	-0.13759036
170	0x3e7f2c63	0.24919276
171	0xbd687328	-0.056750447
172	0x3e0e271e	0.1388211
173	0x3e1ae904	0.15127951
174	0x3e5de0ae	0.2166774
175	0xbe6e98b3	-0.23300438
176	0xbe6e5188	-0.23273289
177	0xbd0fbd33	-0.035092544
178	0xbd78f0f0	-0.06077665
179	0x3d1a7ca9	0.03771654
180	0xbe6d2852	-0.23159912
181	0x3d72b613	0.05925567
182	0x3d3665c6	0.044530652
183	0x3e603c7a	0.2189807
184	0xbd2fd894	-0.042931154
185	0x3e55936e	0.20857021
186	0xbdf13cf6	-0.117792055
187	0x3e2592a9	0.16169228
188	0x3dbdf332	0.092749014
189	0xbe518d63	-0.20464091
190	0xbdff0db0	-0.124537826
191	0x3dbd7371	0.09250534
192	0xbdb560f0	-0.0885638
193	0xbe2ca76c	-0.16860741
194	0x3e351fb3	0.17687874
195	0x3e04242a	0.1290442
196	0x3ddeeec4	0.10885385
197	0xbd8bdf06	-0.06829648
198	0x3d96e30e	0.07367526
199	0xbe60ffe5	-0.21972616

weight f4 [200, 200]
0	0xbc03dbe0	-0.008048028
1	0x3b166620	0.0022949055
2	0x3ca77eaf	0.02044615
3	0x3cd85c48	0.02641119
4	0x3cd68cec	0.026190244
5	0x3d49b48d	0.049244452
6	0xbd393ac8	-0.045222074
7	0xbd36a77b	-0.044593316
8	0xbcfa48cc	-0.03055229
9	0x3d02a7f7	0.031898465
10	0x3d8ceb8b	0.06880864
11	0x3d6a8165	0.057252306
12	0x3d90cb65	0.070700444
13	0xbd8884d9	-0.06665964
14	0xbc9a8178	-0.018860564
15	0x3d6ded7a	0.058087803
16	0xbc17b9cf	-0.009260609
17	0x3d80f203	0.0629616
18	0x3d3d19f0	0.046167314
19	0x3d3fd386	0.046832584
20	0xbcf7addc	-0.03023427
21	0xbd8155d9	-0.06315202
22	0xbd8c70fe	-0.06857489
23	0x3c8c8d91	0.017157348
24	0x3d511746	0.051047586
25	0x3d0c6070	0.034271657
26	0x3d58da12	0.052942343
27	0x3d5eec1d	0.054424394
28	0xbd2a9523	-0.041646134
29	0x3d4918ad	0.0490958
30	0xbd41ffbe	-0.047363035
31	0x3d33e75f	0.043921825
32	0xbcaa51a9	-0.020790892
33	0x3d005ff2	0.0313415
34	0xbcbfc412	-0.023408923
35	0xbd687e22	-0.056760915
36	0xbb95ae90	-0.0045679286
37	0x3d3c6548	0.045995027
38	0x3d1a9034	0.03773518
39	0xbd617836	-0.055046283
40	0xbc5d462c	-0.0135055
41	0x3cf193bc	0.02948939
42	0xbd143c7d	-0.0361905
43	0x3bad2f29	0.005285163
44	0xbba9e73b	-0.0051850355
45	0x3b2ff0c6	0.0026846393
46	0x3d5f228a	0.0544763
47	0xbd870c5f	-0.065941565
48	0x3d5ce9c4	0.053933874
49	0xbd6ad048	-0.05732754
50	0xbd90b82a	-0.070663765
51	0x3c3738c2	0.011182966
52	0x3d55d650	0.052206337
53	0xbce32fc0	-0.02773273
54	0xbc99ae0c	-0.01875975
55	0x3d7c3ad6	0.061579548
56	0x3d50a0d6	0.050934635
57	0x3ca91be0	0.020643175
58	0x3d474fb0	0.04865998
59	0x3d2b39d6	0.041803204
60	0xbd290dea	-0.041273035
61	0xbd65adec	-0.056074068
62	0xbcd0d7f6	-0.025493603
63	0xbcd4e0b0	-0.025986046
64	0xbc9d0e7e	-0.01917195
65	0x3b8386e0	0.004013881
66	0xbcd48648	-0.025942937
67	0xbcc4c78f	-0.024020938
68	0x3d736cf2	0.05943007
69	0x3d8d8f19	0.06912059
70	0xbd5c5789	-0.053794418
71	0xbd198a13	-0.037485193
72	0xbb95e6a0	-0.004574612
73	0x3c9ea491	0.01936558
74	0xbd69220c	-0.056917235
75	0x3d52c096	0.051453196
76	0x3bf88510	0.0075842217
77	0xbd3abeb9	-0.045592044
78	0xbc8282ea	-0.015931565
79	0xbd813ef0	-0.063108325
80	0xbb914bc0	-0.004434079
81	0x3d41c33f	0.04730534
82	0xbc8627a1	-0.016376318
83	0x3d014d8f	0.031568106
84	0xbd46103f	-0.048355337
85	0xbd845b73	-0.06462755
86	0x3d78ae3e	0.060713045
87	0x3c8839b2	0.016629074
88	0x3cbf10b7	0.0233234
89	0x3d509ad2	0.0509289
90	0x3cccb591	0.024988921
91	0x3b5ecee0	0.0033997819
92	0xbcf3beb6	-0.029754024
93	0xb9b6f57a	-0.0003489664
94	0x3be5a72c	0.007008454
95	0xbd5f2842	-0.054481752
96	0x3c57dfa0	0.013175875
97	0x3c8c25f2	0.017107937
98	0x3d6db100	0.05803013
99	0xbd10975f	-0.03530061
100	0xbd735a13	-0.059412073
101	0x3d04aa21	0.03238881
102	0xbd3399f6	-0.043848
103	0x3d856d6b	0.065150104
104	0xbd2c6044	-0.042083994
105	0x3d48de53	0.04904015
106	0x3cfdc8e4	0.030979581
107	0x3c8e2b8c	0.01735475
108	0xbcc5001a	-0.0240479
109	0x3d64e65a	0.055883743
110	0x3d07d144	0.033158556
111	0xbcdc2864	-0.026874729
112	0x39bde8ea	0.00036222424
113	0x3cc7d204	0.024392135
114	0x3cbebc02	0.023283008
115	0xbcf7ad3d	-0.030233974
116	0xbaa516af	-0.0012595261
117	0x3d7a0be2	0.06104649
118	0xbd698750	-0.05701381
119	0x3d1d9bf2	0.0384788
120	0xbd855f2b	-0.065122925
121	0xbd3596e7	-0.044333365
122	0xbc1233e3	-0.008923504
123	0x3d4bc0f2	0.049744554
124	0xbbff6870	-0.0077944323
125	0xbd58d6fc	-0.0529394
126	0xbbb01d7a	-0.0053746076
127	0x3d519c5a	0.0511745
128	0x3d46d755	0.0485452
129	0x3cdf36f0	0.027247876
130	0xbc9594aa	-0.018259365
131	0x3d1d1f12	0.03835971
132	0x3d385540	0.045003176
133	0xbcf1a8b4	-0.02949939
134	0xbd1b05d7	-0.037847366
135	0x3bed4b7d	0.007241665
136	0xbcd42fee	-0.02590176
137	0xbd00a975	-0.031411607
138	0xbd728a81	-0.05921412
139	0x3bb4cdee	0.005517713
140	0xbc79752c	-0.01522569
141	0xbd69639d	-0.056979764
142	0x3c846e4c	0.016165875
143	0xbd72b886	-0.059258007
144	0x3d800277	0.0625047
145	0x3c874d10	0.016516238
146	0xbd1b74cb	-0.03795318
147	0x3d838a8f	0.06422912
148	0x3d6ab609	0.05730251
149	0xbd5efc70	-0.054439962
150	0xbd3109e5	-0.043222327
151	0x3d7439f8	0.059625596
152	0x3cf69868	0.03010197
153	0x3d6ec8aa	0.058296837
154	0xbd0b5b63	-0.0340227
155	0xbd820111	-0.0634786
156	0xbd01d419	-0.031696413
157	0x3d1b7448	0.03795269
158	0x3ccfcd9d	0.025366599
159	0xbcd19f4e	-0.025588658
160	0x3d683ee6	0.05670061
161	0xbcf34600	-0.029696465
162	0xbd1e9357	-0.038714733
163	0x3cee56a8	0.029094055
164	0x3d0b8a76	0.034067594
165	0xbd8b5a39	-0.06804318
166	0xbd79b7f6	-0.060966454
167	0xbd8ba3ed	-0.06818376
168	0x3d234a04	0.03986551
169	0x3d05dad6	0.0326794
170	0xbceee2d3	-0.029160893
171	0x3d7b596a	0.06136457
172	0x3d594034	0.053039744
173	0x3d0fa5da	0.035070278
174	0xbd87cb35	-0.066305555
175	0x3cb2154c	0.02173867
176	0x3b015320	0.0019733384
177	0x3bf65639	0.0075176028
178	0x3d7ec636	0.062200747
179	0xbcb543c0	-0.022127032
180	0x3d53c8d4	0.051705196
181	0x3d200d80	0.039075375
182	0x3d2d3b9f	0.042293187
183	0x3bdd1603	0.0067470088
184	0x3d151c6f	0.03640407
185	0x3d351734	0.04421158
186	0xbd2c95c8	-0.04213503
187	0x3b8152fa	0.003946659
188	0x3d4c29ef	0.04984468
189	0x3d2790d8	0.04090962
190	0xbd4e513a	-0.050370432
191	0xba2dcc0a	-0.00066298305
192	0xbd3c555f	-0.045979854
193	0x3d2692b2	0.040667243
194	0xbb211565	-0.0024579403
195	0x3d2a9e6a	0.04165498
196	0xbb4f2d3a	-0.003161265
197	0x3c00ec38	0.007868819
198	0xbd43c7cc	-0.047797963
199	0x3d2f3490	0.042774737
200	0x3ca9fc08	0.02075006
201	0xbd1c8bad	-0.038219143
202	0xbd760246	-0.060060762
203	0xbc443980	-0.0119766
204	0x3d2d5b5a	0.042323448
205	0xbd80dae0	-0.06291747
206	0x3cde843d	0.027162666
207	0x3d5b74ff	0.053578373
208	0x3d2392f1	0.039935056
209	0xbc9de4b4	-0.019274093
210	0x3c037da3	0.00802556
211	0x3d59c185	0.05316307
212	0xbd864b90	-0.06557381
213	0xbd266e3a	-0.040632464
214	0xbc1b2a28	-0.0094705
215	0x3d424926	0.04743304
216	0xbd0cb166	-0.034348868
217	0xbc306ea1	-0.0107685635
218	0x3bd06de0	0.0063607544
219	0x3d58e23a	0.05295012
220	0x3d7d71ce	0.06187611
221	0xbd662020	-0.05618298
222	0xbd8e764a	-0.069561556
223	0xbbe49379	-0.006975588
224	0x3c8dffa8	0.01733382
225	0xbd3286d3	-0.04358561
226	0x3cfd7be0	0.030942857
227	0x3d40b6df	0.0470494
228	0x3d4741d6	0.04864677
229	0x3cda0f7c	0.026618712
230	0xbd160c80	-0.036633015
231	0x3d3dceb9	0.046339724
232	0x3c587cbc	0.013213333
233	0x3aa3a7f8	0.0012485972
234	0xbcd181f9	-0.025574671
235	0x3d005990	0.031335413
236	0xbd79c1e4	-0.060975924
237	0x3d293c24	0.04131712
238	0xbd0ab3ba	-0.033862807
239	0xbd744b0a	-0.059641875
240	0xbd512489	-0.051060233
241	0x3d0ad3c6	0.03389337
242	0x3d598f64	0.053115264
243	0x3aa33dd2	0.0012454337
244	0xbcbf86da	-0.023379732
245	0x3cf19e78	0.02949451
246	0xbb0e15b2	-0.0021680412
247	0xbcaab387	-0.020837558
248	0xbd1499b6	-0.036279403
249	0x3d19bdb0	0.037534416
250	0x3d4ee4ce	0.050511174
251	0xbd142b70	-0.036174238
252	0xbd8fc8da	-0.07020731
253	0xbc68ab9c	-0.014201071
254	0xbc59ebdc	-0.013300862
255	0x3c95bb58	0.018277809

bias f4 [200]
0	0x3d87c569	0.0662945
1	0xbb02718e	-0.001990411
2	0xbcf52d65	-0.029928872
3	0xbd14c2fd	-0.036318768
4	0x3d908b58	0.07057828
5	0xbd86e158	-0.0658595
6	0xbc2b3e00	-0.010451794
7	0xbcb7d782	-0.02244163
8	0x3c06a690	0.0082184225
9	0x3d09328a	0.033495463
10	0x3d13f859	0.036125515
11	0x3d851e1c	0.064998835
12	0x3d778454	0.060428932
13	0x3cf0c3ab	0.029390177
14	0x3d3842ed	0.0449857
15	0xbc85049a	-0.016237546
16	0xbd15cdf6	-0.036573373
17	0x3d5c5786	0.053794406
18	0xbd511946	-0.051049493
19	0xbc24d7a4	-0.010061178
20	0xbc6aa26c	-0.014320951
21	0xbcdcc2e8	-0.026948407
22	0x3d0af392	0.033923693
23	0x3c91f130	0.017815202
24	0x3bcd3d30	0.0062633976
25	0xbd209c8d	-0.0392118
26	0x3d4204b7	0.047367778
27	0x3d899fa6	0.06719904
28	0x3d5496b0	0.05190152
29	0x3d29bbfd	0.041439045
30	0xbd494493	-0.049137663
31	0x3cfc0378	0.030763373
32	0x3d81b75c	0.06333801
33	0xbcf4449e	-0.029817875
34	0xbc65bd40	-0.0140221715
35	0xbb9dee95	-0.004819701
36	0x3d8a87e6	0.06764202
37	0xbc894275	-0.016755322
38	0xbcfbd6fa	-0.030742157
39	0xbd7c791d	-0.06163894
40	0xbd893ffc	-0.06701657
41	0xbd7a151b	-0.061055284
42	0xbd862e32	-0.0655178
43	0x3d7c98de	0.061669223
44	0xbd0c54b2	-0.03426046
45	0x3d627ef0	0.05529684
46	0x3ca3bfcd	0.019988919
47	0xbcd1e4c0	-0.025621772
48	0xbd45a182	-0.04824973
49	0xbc6919d4	-0.014227349
50	0x3d798bfc	0.060924515
51	0xbca6be7a	-0.020354498
52	0x3c386118	0.011253618
53	0xbd2924c2	-0.04129482
54	0x3c98e86f	0.01866552
55	0xb94efa18	-0.00019738858
56	0x3d24f40a	0.040271796
57	0x3d106a8c	0.03525786
58	0x3d3a9ab2	0.045557685
59	0x3d81927c	0.06326768
60	0x3d3d37fc	0.04619597
61	0x3d165481	0.036701683
62	0xbc9918fc	-0.018688671
63	0xbd22dea0	-0.039763093
64	0xbccf0154	-0.025269188
65	0x3d3a65c0	0.045507193
66	0x3c2a6251	0.010399417
67	0xbd7ad0f4	-0.06123443
68	0xbd36e518	-0.044652075
69	0x3d248b4c	0.040171906
70	0x3d600431	0.054691497
71	0xbcc54285	-0.02407957
72	0xbd0a8403	-0.033817302
73	0x3d8cf801	0.068832405
74	0xbd12dc17	-0.035854425
75	0xbd6f3e42	-0.058408983
76	0x3ce1e244	0.027573712
77	0xbc35d966	-0.011099195
78	0xbd6261b9	-0.055268977
79	0xbc429567	-0.011876441
80	0xbd5a6536	-0.05331918
81	0x3d667914	0.056267813
82	0xbd6f1012	-0.058364935
83	0x3d8b7b4f	0.068106286
84	0x3b17c220	0.002315648
85	0x3c9d1738	0.01917611
86	0x3d5332cc	0.051562116
87	0xbbefbfd0	-0.007316567
88	0x3b32b00b	0.0027265574
89	0xbcc9e0f4	-0.024643399
90	0xbd4c5b0c	-0.049891517
91	0xbd24debf	-0.04025149
92	0x3d69e57a	0.05710361
93	0xbcbfab4e	-0.023397114
94	0x3d3b3c2e	0.04571169
95	0x3d1f0719	0.03882513
96	0x3d6d1575	0.05788179
97	0x3bc44ff0	0.0059909746
98	0x3d85ce5d	0.06533501
99	0x3d511955	0.05104955
100	0xbca49e15	-0.02009491
101	0x3d58fade	0.05297362
102	0xbcfaa0bc	-0.030594222
103	0x3d6bd012	0.05757148
104	0x3cc26840	0.02373135
105	0x3d15593a	0.036462046
106	0x3cc52e85	0.024070034
107	0x3aa3b6c0	0.0012490377
108	0xbcaee742	-0.021350507
109	0x3d146a3e	0.036234133
110	0x3c36ff8b	0.011169325
111	0xbd25cfd8	-0.04048142
112	0xbd872065	-0.06597976
113	0x3b05cd58	0.0020416584
114	0x3d43dcd6	0.047818027
115	0xbd51cdf1	-0.05122179
116	0xbd34f251	-0.044176403
117	0xbbb1f4e7	-0.005430806
118	0x3d417c8a	0.04723791
119	0x3d82a84a	0.06379755
120	0x3d3a57a2	0.04549373
121	0xbd89da6b	-0.06731113
122	0x3d8d0c62	0.068871275
123	0x3c3272a0	0.010891587
124	0x3cb74a52	0.022374306
125	0x3cfeb285	0.031090984
126	0xbd52b79b	-0.05144463
127	0xbd870544	-0.06592801
128	0xbd1f6f0e	-0.03892427
129	0x3d2ab18d	0.041673232
130	0xbd584f9c	-0.052810296
131	0xbcf1ddb4	-0.029524662
132	0x3a8df36b	0.001082999
133	0xbd6a9e7e	-0.057280056
134	0x3ba773bb	0.0051102317
135	0x3d215ec2	0.03939701
136	0x3d80f5ab	0.062968574
137	0x3d23012f	0.03979605
138	0xbd1eb595	-0.03874739
139	0x3c742f4b	0.014903854
140	0x3d75d3bf	0.06001639
141	0x3d3a23e0	0.04544437
142	0xbd81e3f4	-0.06342307
143	0x3d25a17c	0.040437207
144	0xbba6590b	-0.0050765327
145	0xbd842e1b	-0.064541064
146	0x3d31c573	0.043401193
147	0xbd321410	-0.043476164
148	0xbcc792a3	-0.024361914
149	0xbd30b57d	-0.04314183
150	0xbd4e2fa9	-0.05033842
151	0xbc373d0c	-0.011183988
152	0x3d196fe7	0.037460234
153	0xbbff5bb8	-0.007792916
154	0xbc84080b	-0.016117116
155	0xbd58e14d	-0.05294924
156	0xbc530503	-0.012879613
157	0x3d34a63a	0.04410384
158	0xbd61206a	-0.054962553
159	0xb947f000	-0.00019067526
160	0xbb5320c0	-0.0032215565
161	0x3d38e579	0.045140717
162	0x3bf21000	0.0073871613
163	0xbca5b99e	-0.02023011
164	0x3ccf42cc	0.025300406
165	0x3d6f038b	0.05835299
166	0x3cc9444f	0.024568705
167	0x3cbe0c4f	0.023199229
168	0xbd57ca3c	-0.0526831
169	0x3d01d59a	0.031697847
170	0xbd889922	-0.06669833
171	0x3cb19a99	0.021680163
172	0x3d5c9e14	0.053861693
173	0x3d805d20	0.06267762
174	0xbca37248	-0.019951954
175	0xbca492a8	-0.020089462
176	0xbc8f21e7	-0.01747222
177	0x3d2a39f0	0.04155916
178	0xbd00ff6d	-0.031493593
179	0xbd0263c9	-0.031833444
180	0xbd0d8eb3	-0.034559917
181	0xbc9ac551	-0.018892916
182	0x3ca29460	0.019846141
183	0xbca09696	-0.019603055
184	0xbc60f43b	-0.013730104
185	0x3bbe92a7	0.005815822
186	0xbd3adb92	-0.045619555
187	0xbd05b3c9	-0.03264216
188	0xbd7e567e	-0.062094204
189	0x3cf20bc5	0.029546628
190	0xbc884f1a	-0.016639281
191	0xbd049a5a	-0.032373764
192	0x3c645f04	0.013938669
193	0x3d803558	0.062601745
194	0xbc89639a	-0.016771127
195	0x3cc15729	0.023601132
196	0xbd7bd5f1	-0.061483327
197	0xbd43d1dc	-0.04780756
198	0x3d89dadf	0.067311995
199	0xbd6837f9	-0.056694005

weight f4 [1, 200]
0	0x3d842933	0.064531706
1	0x3d35119b	0.044206243
2	0xbd1244b2	-0.035710044
3	0x3d3a3a5e	0.04546582
4	0xbaa0ead3	-0.0012277014
5	0x3c8757e0	0.016521394
6	0x3c7ed5d0	0.015553907
7	0xbd8f1679	-0.06986708
8	0x3be631b0	0.007024966
9	0x3cad61d2	0.021164808
10	0xbcfeb5b7	-0.031092508
11	0xbd8aaa92	-0.06770815
12	0xbccceaad	-0.025014246
13	0x3d835719	0.06413097
14	0xbce1ad7b	-0.027548542
15	0x3cd6befd	0.026214117
16	0x3c790a67	0.015200234
17	0x3cc3c125	0.02389581
18	0x3d80e249	0.062931605
19	0x3d044480	0.03229189
20	0xbd81f83c	-0.06346175
21	0xbd7e2cea	-0.062054552
22	0x3d1d0ec3	0.038344156
23	0x3c5fa0d8	0.013649188
24	0x3d5d1c62	0.053982146
25	0xbd892344	-0.066961795
26	0x3d365ee3	0.044524085
27	0x3b5a1151	0.0033274482
28	0x3be1cee7	0.0068911198
29	0xbd08130f	-0.0332213
30	0xbc6d3907	-0.014478928
31	0xbd2cd1be	-0.042192213
32	0xbd2952dc	-0.041338786
33	0xbcf7ea76	-0.030263167
34	0xbd586f61	-0.052840594
35	0xbd76a63b	-0.060217123
36	0xbcbeba3f	-0.023282168
37	0x3cbf11a0	0.023323834
38	0xbd1e0159	-0.038575504
39	0xbccf2215	-0.025284806
40	0x3b1cfe60	0.002395533
41	0x3d7c97c6	0.06166818
42	0x3d538bd4	0.051647022
43	0xbd240834	-0.040046886
44	0x3d837e6b	0.06420597
45	0x3d36e294	0.044649675
46	0x3cd2a6f6	0.025714379
47	0xbd6af89a	-0.05736599
48	0xbcad9bce	-0.021192458
49	0xbd4d8c32	-0.05018253
50	0x3d65191e	0.055932157
51	0x3ce6d54c	0.02817788
52	0xbd4fe822	-0.05075849
53	0xbd531d70	-0.051541746
54	0x3beed655	0.007288734
55	0x3cf8868e	0.030337598
56	0x3b0ba291	0.0021306614
57	0xbc499270	-0.01230298
58	0xbd5578bd	-0.052117098
59	0xbbe1253b	-0.0068708933
60	0xbc147c1a	-0.009062791
61	0x3d503107	0.050828006
62	0x3d8eeebf	0.06979131
63	0xbd3cbe7e	-0.046080105
64	0xbd232360	-0.039828658
65	0xbd137722	-0.036002286
66	0x3d85422c	0.06506762
67	0x3d4c70d4	0.04991229
68	0x3d238742	0.039923914
69	0x3c525934	0.0128386505
70	0xbd8a6937	-0.067583494
71	0x3d591413	0.05299766
72	0xbd68394c	-0.056695268
73	0x3d44815b	0.047974925
74	0x3d2dc8ba	0.042427756
75	0xbc7c8e60	-0.015414804
76	0x3d4122ca	0.047152318
77	0xbd33661b	-0.043798547
78	0xbd199ffb	-0.037506085
79	0x3d392046	0.045196794
80	0xbd221ec0	-0.039580107
81	0x3b731f47	0.00370975
82	0x3d17d0b4	0.03706427
83	0xbd8af917	-0.06785791
84	0xbd32f20c	-0.043687865
85	0x3d33121e	0.04371845
86	0x3d257dc7	0.040403154
87	0x3d22da8a	0.039759196
88	0x3d54e481	0.05197573
89	0x3d253866	0.04033699
90	0xbd42f9f5	-0.04760166
91	0x3aa18b80	0.00123249
92	0xbc9115e0	-0.017710626
93	0x3c8a00a0	0.016846001
94	0xbd548b13	-0.051890444
95	0xbc96ba3c	-0.01839935
96	0x3cbbd793	0.022929942
97	0x3d3a5724	0.04549326
98	0xbd8a81f8	-0.06763071
99	0xbd8df71c	-0.06931898
100	0xbc06ad83	-0.008220079
101	0x3c3ea46b	0.01163588
102	0x3cc99768	0.024608329
103	0x3bc25c07	0.0059313807
104	0x3a53a500	0.0008073598
105	0x3ccf4740	0.02530253
106	0x3cc432fa	0.023950089
107	0xbc9b10da	-0.018928934
108	0x3c8c1c0c	0.017103218
109	0xbd0f0c57	-0.034923878
110	0x3c92a70a	0.017901916
111	0x3d6b646a	0.05746881
112	0xbbf36860	-0.007428214
113	0x3d7b0dfc	0.061292633
114	0x3d4de6c4	0.050268903
115	0x3ce25e9e	0.027633008
116	0xbcedb63b	-0.029017558
117	0xbc116ee8	-0.00887654
118	0xbcd267e2	-0.0256843
119	0x3d899f82	0.06719877
120	0x3d8f39fd	0.06993482
121	0x3d33e106	0.04391577
122	0xbd31cfb3	-0.043410968
123	0xbd498104	-0.049195305
124	0x3d751de7	0.05984297
125	0xbd19f00c	-0.037582442
126	0xbd8148ec	-0.06312737
127	0xbc249ed4	-0.010047633
128	0x3d8ea23b	0.06964537
129	0x3d7ef18b	0.062242072
130	0xbca2107c	-0.019783251
131	0xbd3e9cec	-0.04653637
132	0x3ae67941	0.0017583744
133	0xbc116690	-0.00887455
134	0xbd8b99d5	-0.068164505
135	0x3d316bfd	0.043315876
136	0x3d441a0c	0.047876403
137	0xbd8eff6e	-0.06982313
138	0xbb62409f	-0.003452338
139	0x3d081be2	0.033229716
140	0x3bd14f57	0.006387632
141	0x3d81d823	0.06340053
142	0xbd32c5d2	-0.043645687
143	0x3d8cbd8a	0.06872089
144	0x3d1a208b	0.03762869
145	0xbcfea3f8	-0.031084046
146	0x3d394c5e	0.045238845
147	0x3beb6960	0.0071841925
148	0x3ce54ce2	0.027990762
149	0x3d3108e4	0.04322137
150	0xbc9bc695	-0.01901559
151	0x3d6b74f2	0.057484575
152	0x3d453d07	0.048153903
153	0xbcd83c24	-0.026395865
154	0x3d5abbea	0.053401865
155	0x3b9aaca4	0.0047202874
156	0xbbd69880	-0.006548941
157	0xbb2532b3	-0.002520722
158	0x3d059870	0.03261608
159	0x3d692a0e	0.056924872
160	0xbd8a9c36	-0.06768076
161	0xbbde6a2a	-0.006787558
162	0x3d6abe86	0.057310604
163	0xbd73b940	-0.05950284
164	0xbd75c285	-0.05999996
165	0x3ba63856	0.0050726337
166	0xbcc56ded	-0.024100268
167	0x3ca79620	0.020457327
168	0xbd589956	-0.052880608
169	0x3c1a350d	0.009412062
170	0x3bd1abc0	0.006398648
171	0x3cf15158	0.029457733
172	0xbd57c320	-0.05267632
173	0xbd403a04	-0.046930328
174	0x3d3c0aa3	0.04590858
175	0x3c9fba12	0.019497905
176	0x3d61ba85	0.05510952
177	0x3d59df88	0.05319169
178	0xbbdd58c3	-0.006754966
179	0x3c814454	0.015779652
180	0x3d196333	0.03744812
181	0x3d744c02	0.0596428
182	0x3ba3a1b9	0.004993644
183	0xbd43d98f	-0.047814902
184	0xbd4fe947	-0.05075958
185	0x3d0d7ae0	0.03454101
186	0x3acd62c0	0.0015669689
187	0xbb8f3417	-0.0043702233
188	0x3b980cf0	0.004640214
189	0xbcd8ca72	-0.026463721
190	0xbc8822d2	-0.016618166
191	0x3c19ef64	0.009395454
192	0x3c7aac9a	0.0152999405
193	0x3ceb2e8d	0.02870872
194	0x3d22bee2	0.03973282
195	0xbd131bf2	-0.035915323
196	0x3d53a42c	0.05167024
197	0xbc11a644	-0.0088897385
198	0x3d89465b	0.06702872
199	0xbd39d8dc	-0.04537283
