Python_HY/LungCancer/trained_model/Linear_1000_0.0001.pth (torch, 178223 bytes, 5 tensors)

weight f4 [200, 15]
000000 b8 b3 9f 3d ae fc 38 3e f8 3a 9a bd 34 0e 84 bd
       0.077979505 0.1806514 -0.07530779 -0.064480215
000010 be 2d 0e 3e 48 e9 42 3e 07 0e 43 be 80 94 96 bd
       0.13884637 0.19034302 -0.1904832 -0.07352543
000020 02 4e 73 3e 80 e6 b4 3b 08 41 cd 3d 16 05 a3 bd
       0.23760226 0.005520642 0.10022169 -0.079599544
000030 80 4a 53 bc 2c 53 3e be 82 9c 2f 3e a0 c9 8a 3d
       -0.01289618 -0.18586415 0.17149547 0.06776738
000040 ae 29 28 be 2e 86 6e 3e c2 a8 5e 3e e4 d3 aa 3d
       -0.1642215 0.23293373 0.21744063 0.08341196
000050 70 e0 21 3d ed db 06 be 00 ae 7e 3a bc 08 aa bd
       0.03952068 -0.13169833 0.0009715259 -0.08302447
000060 34 91 12 be 16 d9 10 3e 70 96 26 3e 96 84 4b 3e
       -0.14313203 0.14145312 0.16268325 0.19874796
000070 72 a2 1b be 16 b7 22 3e 7a 97 28 be 82 39 60 be
       -0.15198687 0.15890154 -0.16464034 -0.21896937
000080 e4 d1 10 3e 66 3b 32 3e 2a aa 94 bd 92 6c 50 3e
       0.14142567 0.17405471 -0.07259019 0.20353916
000090 16 e9 33 3e 86 53 81 be 40 cd 15 be 60 87 64 3e
       0.17569384 -0.25259036 -0.14629078 0.22317266
0000a0 fe 30 07 3e 01 fb 26 be 4a a1 2a 3e 32 22 1e 3e
       0.13202283 -0.16306688 0.1666309 0.15442732
0000b0 94 1e 1d bd 64 ce 0f be 16 ef 4a be 18 c5 da bc
       -0.03835924 -0.14043576 -0.19817767 -0.02670531
0000c0 3d 15 1e be c8 b2 d5 3d 38 35 67 3e 1c 33 28 be
       -0.1543779 0.104344904 0.22578895 -0.16425747
0000d0 e8 fb 9d bd 79 5f 6d be 50 e4 66 3e 2c 35 95 3d
       -0.07714063 -0.23180951 0.22548032 0.07285532
0000e0 20 43 c3 bd 9a 58 6d 3e d0 8b ae 3c 38 8c e1 3d
       -0.095342875 0.2317833 0.021306902 0.11013073
0000f0 ac b1 d6 3d 90 96 e1 bc 76 bf 3b 3e 93 ff 23 be
       0.10483107 -0.027537614 0.18334755 -0.16015463
000100 54 46 12 be f8 77 a6 3d 6a f7 21 3e 86 d2 55 3e
       -0.1428464 0.08128351 0.15817037 0.2088109
000110 04 65 24 be 08 6a c2 3d 89 43 82 be 6c 30 10 be
       -0.1605416 0.0949288 -0.2544215 -0.14080971
000120 f1 f9 83 3e 7c 60 d7 3d 10 1e 45 bd 13 1e 09 be
       0.25776628 0.1051645 -0.048124373 -0.13390379
000130 28 8c 08 bd b8 c3 07 3e 90 90 2a 3e 84 71 28 be
       -0.03333679 0.13258255 0.16656709 -0.16449553
000140 88 8c 1b be 4e f0 84 bd f0 28 83 be 84 42 c0 3d
       -0.15190327 -0.06491147 -0.2561717 0.09387687
000150 e4 78 35 bd c4 35 12 bd 45 a3 2d be 58 fc 3f 3d
       -0.044304743 -0.035695806 -0.16956814 0.046871513
000160 00 60 17 3c 20 b0 e4 bd 48 08 bf bc 50 4d 4c bd
       0.009239197 -0.11166406 -0.023319378 -0.04987842
000170 04 81 a6 3d 48 fe c0 3d 35 25 73 be e0 73 81 3c
       0.081300765 0.094235 -0.23744662 0.015802324
000180 f7 2b 0c be d0 1e df bc 24 8a 3b bd ce bb 27 3e
       -0.13688646 -0.027236372 -0.045786038 0.16380236
000190 1c 72 2d be a2 e4 ed bd ea a0 c9 bd 18 81 7e 3d
       -0.1693806 -0.11615874 -0.09845145 0.062134832
0001a0 13 e2 70 be 84 d2 cc bd 64 e6 24 be 40 cb 10 be
       -0.2352374 -0.1000109 -0.16103512 -0.14140034
0001b0 78 38 e6 3d 6c ef 33 bd b8 f5 da 3d ee 66 70 be
       0.11241239 -0.043929502 0.106913984 -0.23476765
0001c0 3e 1a 44 3e 20 94 02 3d 60 dd 4a 3d 60 ff 9e bd
       0.19150636 0.031879544 0.049527526 -0.07763553
0001d0 25 61 70 be 9e 00 6f be 30 53 9a 3d 32 01 52 3e
       -0.23474558 -0.23340079 0.07535398 0.20508268
0001e0 26 25 6e 3e a6 ce ce bd fc bc 81 be 46 a1 fc bd
       0.23256359 -0.10098009 -0.25339496 -0.12335448
0001f0 be 47 f1 bd 7a 45 30 be ec e9 db 3d 24 db 0f bd
       -0.11781262 -0.17214003 0.107379764 -0.0351211
000200 97 30 16 be 70 71 57 3e c0 04 65 3d ae a2 7a be
       -0.14666973 0.21039367 0.055912733 -0.2447612
000210 ac b5 30 be 24 fd ed bd 9c e4 38 3e 6e 98 6f 3e
       -0.17256802 -0.11620548 0.18055958 0.23397991
000220 e0 b9 37 3c ac f3 02 be 2e 03 63 be e1 3f 74 be
       0.01121375 -0.12788266 -0.22169182 -0.23852493
000230 50 65 13 be d0 2a d4 3c 52 38 46 3e c4 b4 48 be
       -0.14394116 0.02589932 0.19357422 -0.19600207
000240 68 34 f5 bc df c4 77 be e3 88 7e be e0 96 c8 3c
       -0.029932216 -0.24196194 -0.24856906 0.024486005
000250 d2 a4 39 3e a0 f2 13 3e c4 47 5c bd c0 45 91 3b
       0.1812928 0.14448023 -0.05377938 0.0044333637
000260 8c 48 60 3e 7e 90 15 be 62 34 5a 3e 20 8a 2f bc
       0.21902674 -0.146059 0.21309045 -0.010714084
000270 d4 17 34 3e 28 ad 82 3d 98 4b 63 3e 3e 65 47 3e
       0.17587215 0.06380683 0.22196805 0.19472215
000280 7c b8 14 3e f0 51 1a be 58 6f 0e 3e 54 35 75 be
       0.145235 -0.15070319 0.13909662 -0.23946124
000290 00 af 12 be 02 16 6f be da 35 11 3e 20 78 99 3c
       -0.1432457 -0.23348239 0.14180699 0.018734038
0002a0 65 07 2a be 46 d8 cb bd 18 6b 11 3d 8a 49 52 3e
       -0.16604383 -0.0995336 0.035502523 0.20535865
0002b0 ce 4e 55 be bc cd 47 be 8a 32 75 3e 14 3e bc bd
       -0.20830843 -0.19512075 0.2394506 -0.09191528
0002c0 0c b1 60 be 06 69 69 3e 20 79 74 3e 30 f2 b6 bc
       -0.21942538 0.2279397 0.2387433 -0.02233228
0002d0 d5 48 82 3e 02 24 1b be b0 1a 18 bc d6 e7 70 be
       0.2544619 -0.15150455 -0.009283707 -0.23525938
0002e0 02 9f 79 3e 78 41 8a 3d 80 62 06 3c c4 74 69 3e
       0.24377063 0.067507684 0.008202195 0.22798449
0002f0 60 25 48 bd 1c 6b ab bd ea 97 ee bd 1c 96 8c 3d
       -0.04886377 -0.08370039 -0.11650069 0.068645686
000300 e0 86 14 be 88 50 29 be a0 21 69 bc 86 c3 7c 3e
       -0.14504576 -0.16534626 -0.014229208 0.24683961
000310 e4 0d 8c 3d 78 3c 09 3d 8c 97 07 bd 4c 05 56 3e
       0.06838587 0.033504933 -0.03310351 0.20900458
000320 a6 4a 15 3e 2b 37 50 be 98 80 93 3d 40 68 6b 3c
       0.14579257 -0.20333545 0.07202262 0.014368117
000330 c7 89 41 be 00 58 2e bd 28 1f 6f 3d 7f f2 10 be
       -0.18900214 -0.042564392 0.058379322 -0.14155005
000340 a0 f1 eb bd 40 1a ef bb 64 09 4f be 9c 34 22 be
       -0.11520696 -0.0072968304 -0.20218426 -0.15840381
000350 a5 d8 27 be 45 46 61 be 3e 70 4b 3e b4 21 65 3e
       -0.16391237 -0.21999462 0.19867036 0.22376138
000360 2c f7 f6 3d 50 3b 1e bd d7 64 7d be f0 65 77 3e
       0.12058863 -0.038630784 -0.24745499 0.2415998
000370 e8 a7 03 3e c7 e1 7a be 6c c3 d6 bd 00 b0 64 bb
       0.1285702 -0.2450019 -0.104864925 -0.0034894943
000380 e2 54 35 be 3e 7f 14 3e f8 76 e3 3d 40 b3 bf bb
       -0.17708161 0.14501664 0.11106676 -0.0058502257
000390 a6 be f3 bd a8 c4 98 3d 07 2d 71 be fa f2 51 3e
       -0.11901598 0.07459384 -0.23552333 0.20502844
0003a0 38 3f 39 3d 34 8b 37 be 80 24 6a 3c b0 56 5c 3d
       0.045226306 -0.17924196 0.014290929 0.05379361
0003b0 70 46 f0 3d f5 ab 02 be bc 39 1d be 78 8c be 3d
       0.11732185 -0.12760909 -0.15354055 0.09304136
0003c0 d2 9c 57 be 15 50 4e be 46 6d 6d 3e d4 d4 ab bd
       -0.21055916 -0.20147736 0.23186216 -0.08390203
0003d0 30 4b 3a 3e 4c ea 4c 3e 6f 42 62 be f6 9c 0a 3e
       0.18192744 0.20011252 -0.22095655 0.13536438
0003e0 72 e3 4d 3e f4 b6 52 be 80 c7 8e 3b 00 d1 94 bd
       0.20106295 -0.20577604 0.0043572783 -0.07266426
0003f0 36 31 fc bd 30 a9 8a bc fc 56 28 be 96 ea 76 3e
       -0.12314074 -0.016926378 -0.16439432 0.24112925

bias f4 [200]
000000 58 35 78 be a4 44 70 3e cc 30 14 be f4 89 52 be
       -0.24239099 0.23463684 -0.1447174 -0.20560437
000010 d6 f6 92 bd ce 27 48 be f8 b6 11 3d e8 74 fb 3d
       -0.071759865 -0.19546434 0.035574883 0.122781575
000020 38 5f 83 be 94 f6 12 be a4 9d dd 3d 62 d7 81 be
       -0.25658584 -0.14351875 0.10821083 -0.25359637
000030 00 e8 36 ba fa ad f2 bd a0 ff 80 bd 63 cd 79 be
       -0.000697732 -0.1184959 -0.062987566 -0.24394755
000040 40 03 2e be 29 67 1c be 0e 88 7e 3e a0 2b 08 be
       -0.16993427 -0.15273727 0.24856588 -0.13297892
000050 e2 80 67 3e 41 20 6d be 00 b6 ee bb cc e3 41 be
       0.22607759 -0.23156835 -0.0072848797 -0.18934554
000060 28 a1 20 be 0c 4b 5b be 28 d7 b9 3d d0 2c ef bd
       -0.15686476 -0.21415347 0.09074241 -0.11678469
000070 ce 33 ba bd 9c 3f 6d bd 38 40 f8 3d 2a b5 50 3e
       -0.09091912 -0.05792199 0.12121624 0.20381609
000080 28 e2 04 be d6 e6 80 bd 08 58 d3 bd 73 2d 74 be
       -0.12976897 -0.062940285 -0.10319525 -0.23845463
000090 01 b5 42 be 38 5a cd 3d 68 36 4d be a8 f8 a1 3d
       -0.1901436 0.100269735 -0.20040286 0.079087555
0000a0 cc d6 ed bd de a4 38 3e b4 45 cc 3d 20 c8 a3 bd
       -0.11613235 0.18031642 0.09974232 -0.07997155
0000b0 da 45 12 3e 4e 83 95 bd e4 75 7c be 40 4d d7 3b
       0.14284459 -0.07300435 -0.24654347 0.006570488
0000c0 77 1d 1f be be 36 eb bd fa a4 7e 3e 76 fa 7f 3e
       -0.15538584 -0.114850506 0.24867621 0.24997887
0000d0 98 02 71 bd 30 91 3c 3e af fc 60 be 03 9d 6b be
       -0.058840364 0.1841476 -0.21971391 -0.23009114
0000e0 80 9d d0 bb ba c9 56 3e ba ff 17 be 54 fb 3c 3e
       -0.0063664317 0.2097539 -0.14843646 0.18455249
0000f0 ee 86 27 be 94 e8 dc bd c0 f2 3c bc b0 4a 0a 3e
       -0.16360065 -0.10786548 -0.0115324855 0.13505054
000100 a4 33 29 3e 3a ec 11 3e 6a c6 28 be 80 9e 67 bc
       0.16523606 0.1425027 -0.16481939 -0.01413691
000110 d0 d5 08 3d 08 6b a0 3d a0 11 a8 bc 6a c7 31 3e
       0.033407032 0.078329146 -0.020516217 0.17361227
000120 b4 34 86 3d b8 97 0e 3e 1a 40 08 3e cd b2 4b be
       0.06553021 0.13925064 0.13305703 -0.19892426
000130 d6 ac 2e be 72 c3 7b 3e 68 64 62 3e a6 2c 9c bd
       -0.17058119 0.24586275 0.22108614 -0.076257035
000140 ec 07 bf 3d be ea 22 3e b2 dc 30 3e 26 e7 35 be
       0.09327683 0.1590986 0.17271689 -0.17763957
000150 40 be c6 bb a9 1c 2d be e5 54 81 be b6 46 d6 bd
       -0.00606516 -0.16905464 -0.25260082 -0.10462706
000160 20 fb d3 3c d6 b4 24 be d0 54 91 bd 80 a5 86 3d
       0.025876582 -0.16084608 -0.07096255 0.06574535
000170 25 5c 61 be 52 d8 4b 3e 86 c4 55 3e da 2a e4 bd
       -0.22007807 0.19906738 0.20875749 -0.11140986
000180 67 e2 05 be 60 e7 58 bc 0c a7 82 3d b0 e0 c5 3c
       -0.13074647 -0.013238758 0.06379518 0.02415499
000190 34 f6 40 3e 4b e7 5c be 60 e3 b0 3d 78 11 04 3d
       0.18843919 -0.21572606 0.08637118 0.032243222
0001a0 90 b9 24 bc 22 ea 7b 3e 50 f9 1b 3e 10 52 ea 3d
       -0.010054007 0.24601033 0.15231824 0.114414334
0001b0 e2 66 35 3e a7 39 83 3e da 4e 40 3e e4 c3 79 bd
       0.17715028 0.25629923 0.1878008 -0.06097783
0001c0 6c 04 2b 3e 20 f1 86 3d cc ac ab 3d 8a ae 22 be
       0.16700906 0.0658896 0.08382568 -0.15886894
0001d0 96 86 4c be e4 5f c3 3d 58 b2 3b 3e 11 d1 25 be
       -0.19973215 0.09539774 0.18329751 -0.16193034
0001e0 1a c0 27 3e d4 10 f2 3d ca 7e 21 3e d2 25 7f 3e
       0.16381875 0.11819616 0.15771022 0.24916771
0001f0 e6 95 b5 bd 78 15 12 be ed 65 3d be be 0a 17 be
       -0.088664815 -0.14266002 -0.18495913 -0.14750192
000200 e2 a0 3b 3e 48 e4 41 be f6 33 58 3e 8a f5 70 3e
       0.1832309 -0.18934739 0.21113572 0.23531166
000210 14 40 70 bd 40 7e df bb 20 14 86 3d f4 a1 75 bd
       -0.05865486 -0.00682047 0.06546807 -0.059968904
000220 bf 0d 66 be c0 b1 cd 3b d6 3a 7f 3e bc 8b 42 be
       -0.22466181 0.006277293 0.24924788 -0.18998617
000230 be de e3 bd 10 d8 4a 3d 04 c6 57 3e f2 df 31 be
       -0.11126469 0.04952246 0.2107163 -0.17370585
000240 12 16 14 3e 94 ee 1f 3e d0 09 27 3d 2b ed 17 be
       0.14461544 0.15618354 0.040780842 -0.14836566
000250 ce b7 2f be 26 a9 8d bd 12 97 ab bd 14 74 07 be
       -0.1715996 -0.06917028 -0.08378424 -0.13227874
000260 0e e7 2d 3e d8 1b 30 3e e0 52 fb 3d b0 f4 59 bd
       0.16982672 0.17198122 0.122716665 -0.053211868
000270 55 27 5e be e7 49 6f be da c5 a4 bd fc 39 0d 3e
       -0.21694691 -0.23368035 -0.0804555 0.1379165
000280 3f 92 82 3e 14 01 20 3e e2 94 6d 3e 5a 41 5a 3e
       0.25502202 0.15625411 0.23201326 0.21313992
000290 98 72 7a 3d 7a db 65 3e 80 f8 6c bb 5f 26 30 be
       0.06114444 0.22447005 -0.003615886 -0.17202137
0002a0 fb 55 5f be 1e 8e 75 be 08 60 b4 3d 02 45 63 3e
       -0.21810143 -0.23979995 0.08807379 0.22194293
0002b0 7c 7e 58 bd 20 79 37 bd 52 0e 1d be 00 09 48 bb
       -0.052855 -0.04479325 -0.15337494 -0.0030522943
0002c0 f0 1f 3d be 86 2e 5b be 66 b3 31 3e 7c 6c 67 3e
       -0.18469214 -0.21404466 0.17353591 0.22599977
0002d0 e2 63 32 3e b4 18 e8 3d 08 7d 1d 3e a8 98 33 3e
       0.17420915 0.11332837 0.15379727 0.17538702
0002e0 63 0f 78 be 64 8b ff 3d 5a b6 7d be f8 34 30 3d
       -0.2422462 0.124777585 -0.24776593 0.043019265
0002f0 a4 0b 5b be e0 ac 42 3e 48 12 0e bd e8 81 ac 3d
       -0.2139116 0.19011259 -0.034685403 0.08423215
000300 1a 04 73 3e 64 c8 58 3e d0 57 fa bc 6f d5 01 be
       0.23732033 0.21170193 -0.03055945 -0.12679075
000310 5c e6 14 bd b4 5a 1c bd 50 27 82 3c 16 8d f9 bd
       -0.0363525 -0.03817244 0.015887886 -0.12185113

weight f4 [200, 200]
000000 a6 bd 39 3d f4 11 b9 3c d8 96 52 3d 2c 5d 18 bc
       0.04534688 0.022591569 0.051413387 -0.009299558
000010 98 18 15 bc 88 ec 47 3d f4 52 44 bc b0 7d 4c bd
       -0.009100102 0.04880956 -0.011982668 -0.049924552
000020 ec 8d a8 bc 6d bb 25 bd 38 a6 c0 3c 6a 29 1d 3d
       -0.020575486 -0.040461946 0.02351676 0.038369574
000030 b0 59 99 bc 1d ac 8a bd 06 2d 28 3d ad 47 36 bd
       -0.018719524 -0.06771109 0.041058563 -0.04450195
000040 e6 a3 62 3d de fc 6f 3d 36 a6 1b 3d 98 bc 0e bd
       0.055332087 0.058590762 0.038000308 -0.034847826
000050 5a ee 49 3d b8 ae be 3c 3d af 8c bd 24 d3 11 3d
       0.049299575 0.023276672 -0.068693615 0.03560175
000060 66 26 34 3d b8 b4 84 bc 69 21 0f bd 80 19 88 3b
       0.043981932 -0.016199455 -0.03494397 0.0041534305
000070 12 ac 7a 3d ba 15 67 3d b0 e8 e0 3b 30 b3 46 bd
       0.061199255 0.056417204 0.006863676 -0.04851073
000080 ba 07 27 3d b0 08 53 bc b8 71 da bc f9 1a 1c bd
       0.040778853 -0.012880489 -0.026665553 -0.03811166
000090 10 d0 c6 bc 60 60 be 3c 00 2e 6a b9 d8 d1 8e bc
       -0.024269134 0.023239315 -0.00022333115 -0.017434046
0000a0 85 a7 86 bd 5e 42 50 bd 19 47 8f 3d 24 96 3d 3d
       -0.065749206 -0.050844543 0.06995983 0.046285763
0000b0 04 9a fa 3c 28 6b 64 bc a0 23 c8 bb 3a fb 34 3d
       0.030591018 -0.013941564 -0.0061077625 0.0441849
0000c0 a8 f9 b4 3c 78 14 43 bd 21 62 6d bd b2 e6 96 bc
       0.022091702 -0.047626942 -0.05795491 -0.018420551
0000d0 88 a6 02 bd 38 22 e3 3c ee 87 70 3d 68 1a c6 3c
       -0.031897098 0.027726278 0.058723383 0.024182513
0000e0 00 89 cf ba fc 87 25 bc fc 30 a1 bc e2 57 74 3d
       -0.0015833676 -0.010103222 -0.019676678 0.059654124
0000f0 79 29 6e bd 27 de 81 3d 49 c1 8f 3d 0e aa 1b 3d
       -0.05814502 0.063412 0.07019288 0.038003974
000100 cc d9 2d 3d ce 97 5c 3d 0b 28 0b bd 30 08 ba 3c
       0.042444035 0.05385571 -0.033973735 0.022708982
000110 84 d8 16 bc c8 78 9c 3c 1e 51 bf bc e9 c7 89 3d
       -0.009206895 0.019100562 -0.02335411 0.06727583
000120 8c 94 b8 3c 50 8b cb bb ba df 25 3d 83 e5 74 bd
       0.02253177 -0.0062116757 0.040496565 -0.059789192
000130 68 de 96 bc 3a e3 64 3d 8e 39 0b 3d d0 af 26 bd
       -0.018416598 0.055880763 0.033990435 -0.04069501
000140 a8 0b 86 bd d6 c6 63 3d c0 1c e5 bb d0 9c 0a 3c
       -0.06545192 0.055609547 -0.0069919527 0.008460239
000150 fb 76 61 bd 7d 47 86 3d 78 3a 9e 3c da bb 15 3d
       -0.05504511 0.06556604 0.01931499 0.036556102
000160 93 de 0a bd 90 a3 6b bc f0 11 e6 3b e2 d8 77 3d
       -0.03390367 -0.014382258 0.0070211813 0.06050957
000170 ae e3 5c 3d 7e 62 d0 bc 0a a9 46 3d c0 07 43 3c
       0.05392807 -0.02543759 0.048501052 0.011903703
000180 7d 58 6c bd 9d 0e 07 bd 16 9e 4d 3d c0 d3 a4 bb
       -0.057701577 -0.03297292 0.05019959 -0.0050301254
000190 c0 cf 52 3c a0 00 80 3c 30 1a 37 3d f0 99 c1 3b
       0.012866914 0.015625298 0.04470271 0.0059082434
0001a0 87 08 8e 3d 07 3b 83 3d 66 e1 86 bd 36 7a 3e bd
       0.0693522 0.06407743 -0.0658596 -0.04650327
0001b0 08 29 55 bd d8 c9 59 bd 5a 79 14 bd 00 b0 26 3a
       -0.052041084 -0.05317101 -0.036248542 0.00063586235
0001c0 78 45 3d bc 18 31 7a 3c 4e 29 65 bd 1e 88 a1 bc
       -0.011552207 0.015270494 -0.055947594 -0.019718226
0001d0 2e d3 5e 3d 4e a3 44 3d 06 a8 6d 3d a0 61 15 bb
       0.054400615 0.048007302 0.058021568 -0.0022793785
0001e0 03 8a 81 bd 1a 4a 5f 3d fb 55 8e 3d 60 dc eb 3b
       -0.06325152 0.054514028 0.06949993 0.0071979016
0001f0 b0 00 cf 3b e4 08 0c 3d 70 16 c9 3c 0a 68 1d bd
       0.0063172206 0.034188166 0.024546832 -0.038429298
000200 c2 85 62 bd d4 ef 05 3d d8 db 29 3c ea f6 8b bd
       -0.055303343 0.03269942 0.010367356 -0.068342045
000210 60 8a b4 3c aa 72 52 3d 3e 91 65 3d b0 fb 55 3d
       0.022038639 0.051378883 0.056046717 0.05224198
000220 60 89 f6 bb 8a f3 6b bd b8 c8 42 3c d8 84 a3 3c
       -0.0075237006 -0.057605304 0.011888675 0.019960806
000230 f8 b9 25 bd 96 59 c6 bc 26 75 8d bc 12 74 48 3d
       -0.040460557 -0.02421264 -0.017267775 0.04893882
000240 c0 c5 c0 bb d4 f7 8d bd 4c dd 13 bc 58 98 83 bd
       -0.0058829486 -0.06932035 -0.009024929 -0.06425542
000250 d0 ba f3 bb d5 dc 09 bd 58 25 50 bc 5f 91 89 3d
       -0.0074380413 -0.033657867 -0.012704216 0.067171805
000260 72 90 87 bc 94 e5 ed 3c f2 2e 84 bd 49 ea 20 bd
       -0.01654837 0.029040135 -0.064542666 -0.03928593
000270 62 4b 41 3d 66 2c 85 bd 70 24 3f 3c 04 09 cb 3c
       0.04719103 -0.06502609 0.011666402 0.024784572
000280 78 3c 78 bc df d2 76 bd 88 b4 83 bd a0 92 13 bc
       -0.015151136 -0.060259696 -0.06430918 -0.009007126
000290 a2 8e 17 bd 98 ca 30 3c 6c 7c 52 3d 40 f5 c3 3a
       -0.03700126 0.01079049 0.05138819 0.001495041
0002a0 39 36 74 bd fe 4e ef bc 4f 95 82 3d 44 b0 58 bd
       -0.059622023 -0.029212471 0.063761346 -0.052902475
0002b0 47 c2 81 3d 20 3e f0 3c 60 0c 4e 3b 80 1b 7d ba
       0.063358836 0.029326499 0.0031440482 -0.0009655282
0002c0 9e f7 6a 3d cc 3f 07 bc 40 e3 8a bd 9c e0 ad 3c
       0.057365052 -0.008254956 -0.06781626 0.021225266
0002d0 0c e7 10 3d c0 c7 4c 3b 86 38 63 3d 68 e9 fa 3c
       0.035376593 0.003124699 0.055473827 0.030628875
0002e0 af d9 0b bd 5a 9e 3b bd 58 cc 73 3c 6b dc 8a 3d
       -0.034143146 -0.045805313 0.014880262 0.06780323
0002f0 1c 89 38 bd 70 ff 48 bd bc 7a 29 bc 10 41 c7 bb
       -0.045052633 -0.04907173 -0.010344204 -0.006080754
000300 63 1c 7e bd d2 c2 81 bd 94 b1 08 bc 89 d1 81 3d
       -0.06203879 -0.06335987 -0.008343119 0.06338794
000310 96 0c 5d 3d d0 dc b5 3b 74 58 b6 bc ee cd 56 bd
       0.05396708 0.0055500045 -0.022258975 -0.052442484
000320 ca 0d 54 3d d6 46 d6 bc c8 62 3b bd 70 af 1f 3d
       0.051770963 -0.026156824 -0.045748502 0.03898567
000330 48 86 2b bd 98 45 30 3d 38 ff 22 3c ae d5 2b 3d
       -0.041876107 0.04303512 0.009948544 0.041951828
000340 58 55 58 bc d4 78 cd bc 60 54 a3 3b 30 a4 98 bc
       -0.013203941 -0.02508203 0.0049844235 -0.018632978
000350 78 fa 85 bd 50 cb 00 3d 48 79 1c 3c 60 15 73 3c
       -0.06541914 0.031443894 0.0095504 0.014836639
000360 92 cb 1e bd 30 09 0c 3c c5 97 71 bd 1c 2c 9d 3c
       -0.03876836 0.008547112 -0.05898263 0.019186072
000370 be 1c 39 3d cc c2 05 3d 08 33 1d 3d 09 97 68 bd
       0.045193426 0.032656476 0.038378745 -0.056784663
000380 00 2d ea 3c 00 77 58 bc 38 cb 0a 3c 9b 99 89 3d
       0.02858591 -0.013211966 0.008471303 0.06718751
000390 58 de 3f bd 12 c2 73 bd ff ef 5e bd 40 84 26 3b
       -0.046842903 -0.05951125 -0.054428097 0.0025408417
0003a0 71 38 81 3d 6a 20 20 3d 88 e0 69 bc 5f b8 14 bd
       0.063095935 0.039093412 -0.014274724 -0.036308642
0003b0 00 0a a1 3a c8 a5 59 3c f8 aa 5c 3c 0c 92 99 3c
       0.0012286305 0.013284154 0.0134684965 0.018746398
0003c0 4c 70 b0 3c a2 e3 6b 3d 94 f7 ae bc 31 3d 21 bd
       0.021537922 0.057590134 -0.021358289 -0.039364997
0003d0 00 8a 50 bd 9c 12 50 bc 89 ac 09 bd a4 6f d5 3c
       -0.050912857 -0.012699749 -0.033611808 0.026054211
0003e0 d2 51 8a bd a0 0e 5a bc 18 1f 98 bc 20 f2 ef 3c
       -0.06753887 -0.013309151 -0.018569514 0.029290259
0003f0 f3 ca 8d 3d 82 9d 67 3d 08 2d 8a 3c 46 e9 5b bd
       0.06923475 0.056546696 0.016867176 -0.053689264

bias f4 [200]
000000 2a 3d 46 bd a4 3d df 3c f7 af 88 3d 56 14 cc bc
       -0.048398174 0.027251072 0.06674188 -0.02491204
000010 d2 72 5f bd 20 c8 74 bd b8 6a 3d bd 70 5f 1a 3c
       -0.05455286 -0.059761167 -0.046244353 0.009422168
000020 e2 62 b2 bc 64 81 2a 3d 38 70 34 3d 06 62 43 3d
       -0.021775667 0.041627303 0.044052333 0.047700904
000030 a4 69 b3 3c 60 74 01 bb be 1f 63 3d dc 48 51 3d
       0.02190096 -0.0019753203 0.055450194 0.051094875
000040 46 8f 5f bd c5 9e 71 bd 49 6a 7b bd aa 37 74 3d
       -0.054579996 -0.058989305 -0.06138066 0.059623398
000050 f8 1e bd bc 2c 2a 76 bd 35 22 77 bd 22 ac 28 bd
       -0.023086056 -0.060098812 -0.060335357 -0.041179784
000060 d6 43 4e bd cc 94 c0 bc 0c 6a 95 3c 18 b8 76 3c
       -0.050357662 -0.023508452 0.018239044 0.01505854
000070 f0 e1 9c bc 7d 1c 0d bd 2a 84 26 3d 8e f8 b3 bc
       -0.019150704 -0.034450997 0.040653385 -0.021969106
000080 94 a8 35 3d 8b 79 58 bd bc cf 3f 3d 66 6b 7f 3d
       0.04435022 -0.052850287 0.04682897 0.062358283
000090 90 7b ac bb 40 87 88 3c a8 45 01 3c d6 da 03 3d
       -0.0052637532 0.016666055 0.0078901425 0.03219112
0000a0 a0 34 15 3b c8 2d 77 3c ec ae 3f 3d 16 ce 30 3d
       0.0022766963 0.015086599 0.046797678 0.04316529
0000b0 14 b3 e1 3c 82 8a 37 3d ec 5a fe bc d2 27 ce bc
       0.027551211 0.044809826 -0.031049214 -0.025165472
0000c0 14 e7 1a 3d 78 20 1b 3c 20 67 41 bc 1c 3d 1b 3d
       0.03781803 0.00946819 -0.011804372 0.037900075
0000d0 20 4a ee bc 06 11 9f bc c8 47 14 3d f0 2b dd 3c
       -0.02908808 -0.019417297 0.03620127 0.02699849
0000e0 40 7f 50 bd f8 b3 5b 3d fc 06 f4 3c 08 26 04 3c
       -0.050902605 0.05363843 0.029788487 0.008065708
0000f0 1c 3f 57 3d fe 72 3c 3d ff c7 62 bd b5 02 85 3d
       0.05255042 0.046008103 -0.055366512 0.06494657
000100 b5 0c 71 bd 50 bf b6 3b da 78 27 bd 63 ea 8a 3d
       -0.05885001 0.0055770054 -0.040886737 0.06782987
000110 c4 20 68 bc 60 ca e3 3c f0 e3 11 3c b8 29 6c bd
       -0.014167968 0.02780646 0.008904442 -0.057656974
000120 88 2b 12 bc 8c ed 12 3d 8d eb 80 bd 54 fc 04 bd
       -0.0089215115 0.035871074 -0.06294928 -0.0324672
000130 00 80 6a 38 ae a8 6d bd b0 16 fc bb eb db 71 bd
       5.5909157e-05 -0.058022194 -0.0076931342 -0.05904762
000140 30 3d 80 bd 4d b9 87 bd c4 04 07 bc 36 54 67 3d
       -0.062616706 -0.0662714 -0.008240882 0.056476794
000150 a3 0f 2b bd d1 de 45 bd ea 99 08 3d d0 23 d5 bb
       -0.04176296 -0.048308197 0.03334991 -0.0065045133
000160 d4 12 0d bd 12 c1 30 3d 4a 23 57 3d b0 07 9e bb
       -0.034441784 0.043152876 0.05252389 -0.0048226938
000170 99 00 73 bd a0 43 7c bd 12 96 0e 3d 2f 34 0e bd
       -0.05932674 -0.06158793 0.034811087 -0.034717735
000180 a4 47 2c 3d 50 52 08 3d cc 8a c3 3c 20 20 42 3b
       0.04206051 0.033281624 0.023869894 0.0029621199
000190 c6 86 87 bd 40 34 93 ba 00 31 03 3d f0 d8 c1 bb
       -0.06617503 -0.0011230782 0.032029152 -0.0059157535
0001a0 f6 2f 83 bd 9a f3 7a 3d c0 3e 7f bb 56 48 5e 3d
       -0.06405632 0.061267473 -0.0038947314 0.054268204
0001b0 e0 04 0f 3c 85 72 14 bd d0 c4 49 bc 1e 7e 9d bc
       0.00872919 -0.036242027 -0.01231499 -0.019225176
0001c0 2a ac 3f 3d b0 9f 4b 3d 28 23 5d 3d 50 69 ee 3c
       0.046795048 0.049712837 0.053988606 0.029102951
0001d0 c5 e7 89 3d 6a 91 63 3d 42 d8 0f 3d 9a a5 98 bc
       0.0673366 0.0555586 0.03511835 -0.018633652
0001e0 4a 52 18 3d 6c 1f c5 3c bb 53 17 bd 32 b9 41 bd
       0.037187852 0.024062835 -0.036945086 -0.047295757
0001f0 6a 85 7d 3d b4 e7 36 3d 80 82 97 3b 08 b6 40 bc
       0.06189481 0.044654563 0.004623711 -0.01176215
000200 c0 75 9c 3c 74 14 75 bc 36 35 56 bd 48 ab 22 bd
       0.019099116 -0.01495849 -0.05229684 -0.039714128
000210 e4 e2 2a bc 85 17 5a bd 88 bb 82 3c ea 8c 59 3d
       -0.0104300715 -0.053245086 0.015958562 0.0531129
000220 58 01 1d 3c 1e ac 85 bd ea d8 31 3d d0 1f 86 3c
       0.00958284 -0.065269694 0.043419756 0.016372591
000230 6e d2 3b bd 80 b9 f5 bb a4 cd 6c bc 48 c5 c2 3c
       -0.04585498 -0.00749892 -0.014453325 0.023775712
000240 21 dd 8a 3d 26 3e 6f 3d d6 e9 32 bd 6b 80 7c bd
       0.06780458 0.05840888 -0.043680035 -0.061645906
000250 1c c0 2f bc 78 98 f2 bc 3b 70 80 3d d9 64 1c bd
       -0.010726955 -0.029613718 0.06271406 -0.038182113
000260 86 e9 13 3d dd ee 8d bd 82 b8 ea bc 3e 1d 4b bd
       0.036111377 -0.06930325 -0.028652433 -0.049588434
000270 02 3d 3a 3d 7c 46 d8 3c de 09 7e bd 54 d4 a5 bc
       0.045468338 0.026400797 -0.06202113 -0.020242848
000280 f8 36 27 3c 4d 99 84 bd d6 d6 3f 3d ba 7a 4c 3d
       0.010205977 -0.06474552 0.046835743 0.04992173
000290 4c 38 49 bd 06 2a 57 bd da 20 46 3d b0 b0 a2 3c
       -0.049125955 -0.05253031 0.048371173 0.019859642
0002a0 26 3b 18 3d 08 70 99 3c 44 d3 16 3d d4 dc 2b 3d
       0.037165783 0.018730178 0.036822572 0.041958645
0002b0 00 71 ba 3b d6 80 2f bd 98 ca 85 bc 00 69 d3 b9
       0.00568974 -0.042847477 -0.016331956 -0.00040323287
0002c0 06 b6 f6 bc b0 f7 a9 bb 44 22 0b 3d 55 7c 90 3d
       -0.030116092 -0.0051869974 0.033968225 0.070549645
0002d0 f0 53 c6 bb fc 38 35 3d d6 92 7e bd 30 57 a2 bb
       -0.0060524866 0.044243798 -0.062151752 -0.004954241
0002e0 cd 60 8f 3d ac 47 8a bd f0 4b 7e bc c6 55 09 3d
       0.07000885 -0.067519516 -0.015521035 0.033529066
0002f0 ae 3c 55 3d 80 86 81 ba dc a7 7a bd 09 bc 87 3d
       0.05205982 -0.0009882003 -0.06119524 0.06627662
000300 24 ff 06 bc 76 ef 4c 3d 48 61 48 bc 00 1c 34 3b
       -0.008239541 0.050033055 -0.012230225 0.002748251
000310 f4 86 30 bc 58 b2 27 3d d8 ee d6 3c e0 be 1d bb
       -0.010774363 0.040941566 0.026236936 -0.002407007

weight f4 [1, 200]
000000 35 6f 06 bd d8 ba bb 3c 24 6a d6 bc 5d eb 74 bd
       -0.0328209 0.022916242 -0.026173659 -0.059794772
000010 e4 88 b1 3c 62 58 2c 3d 80 d0 f6 3c 44 92 0c bd
       0.02167172 0.042076476 0.030128717 -0.034319177
000020 ea 48 ad bc c4 ae 31 bc 00 2c 8e ba c2 eb 79 3d
       -0.021152932 -0.01084489 -0.0010846853 0.06101585
000030 26 ab 74 3d cc 86 9f 3c ca 39 6d bd 91 33 88 3d
       0.059733532 0.019473456 -0.05791644 0.066504605
000040 88 e1 16 3c 22 9b 00 3d a4 75 50 bd 0f ba 80 3d
       0.009209044 0.031397946 -0.05089344 0.06285488
000050 90 6d c2 3c 2a c3 65 3d cc 90 26 3d 89 59 72 bd
       0.023733884 0.056094326 0.040665433 -0.05916742
000060 2f 17 5a bd 8f df 89 3d 1c 93 d6 3c 29 0c 8d bd
       -0.053244766 0.067320935 0.026193194 -0.06887085
000070 49 2d 7e bd 60 28 cd bb e8 0f 6e 3c d4 42 ee 3c
       -0.062054906 -0.0062609166 0.0145301595 0.0290846
000080 1c 9a d1 bc 80 00 65 bd e6 b6 5b bd c4 e1 a6 3c
       -0.02558618 -0.05590868 -0.053641222 0.020371325
000090 e4 60 5c bd f1 29 8c bd c2 4e 21 3d a0 45 c3 bb
       -0.05380334 -0.06843937 0.03938175 -0.0059592277
0000a0 10 5a f6 3c d3 79 70 bd 08 47 7c 3c 84 c0 a4 bc
       0.030072242 -0.05870993 0.015397795 -0.02011133
0000b0 4c 0d 40 3d 03 c0 47 bd 98 b6 54 bd 98 10 2d 3c
       0.04688768 -0.0487671 -0.051931947 0.010563038
0000c0 10 5e f7 3c e2 fc 7e bd c6 2c 80 bd 62 b8 c0 bc
       0.03019622 -0.062252887 -0.0625854 -0.02352542
0000d0 8e 6a d5 bc 12 1c 16 3d d8 c9 3d 3c 94 80 31 bd
       -0.026051786 0.036647864 0.011583768 -0.043335512
0000e0 aa 68 6a 3d f0 54 d2 bb 34 0c 7c bc 00 20 66 39
       0.05722872 -0.0064188167 -0.015383769 0.0002194643
0000f0 1e 39 1b 3d 7a 69 09 3d e8 6e 3c 3d e4 e2 d5 3c
       0.037896268 0.033547856 0.046004206 0.026109166
000100 2a ec 7b 3d fe d6 f9 bc 95 6c 8d 3d 00 93 d9 3c
       0.06150452 -0.030498024 0.06905476 0.026559353
000110 91 63 8f 3d a0 2e ef bb ec 06 c3 3c 04 5a 9c 3c
       0.07001413 -0.0072992593 0.023807012 0.019085892
000120 31 68 0c bd 70 27 7d bd b8 20 05 bd 48 a8 61 3c
       -0.034279052 -0.06180519 -0.032501906 0.0137730315
000130 c2 e0 78 3d 78 fa 41 3d 88 23 24 3c b2 e5 4b bd
       0.06076122 0.047358006 0.010018237 -0.0497796
000140 80 e6 bb 3a 30 7e bb 3c 9a 2b f8 bc 90 44 8c 3b
       0.0014335662 0.02288732 -0.030294228 0.004280634
000150 72 40 79 bd 34 48 f5 3c 9a 92 c4 bc f0 7a cd bb
       -0.060852475 0.029941656 -0.023995686 -0.006270759
000160 d7 72 7e bd 08 dc 8c bd ee 33 89 bd 1b 8d 15 bd
       -0.06212124 -0.06877905 -0.06699358 -0.03651152
000170 88 c0 da 3c 38 ee 88 bc b4 bd 42 3d de fc 39 bd
       0.026703134 -0.016715154 0.047544196 -0.04540717
000180 f4 06 30 bd c4 dc a2 bc d8 2d 1a 3d 2f 1d 3b bd
       -0.04297538 -0.01988066 0.037641376 -0.04568213
000190 50 da eb bc ee 7c 33 bd 14 39 9a bc f2 e8 73 3d
       -0.028790623 -0.043820314 -0.018826045 0.059548326
0001a0 44 0d 5d bd 60 8c 24 3b 80 1a 4f bd be e9 30 3d
       -0.05396773 0.0025108084 -0.05056238 0.043191664
0001b0 c0 c6 d4 bc dd 16 82 3d dc 34 b1 3c a7 ef 7f bd
       -0.025973678 0.06352017 0.02163165 -0.06248441
0001c0 f6 c7 6e bd d8 8d 8f 3c fa 9f 08 3d 00 9f 09 bc
       -0.058296166 0.017523691 0.03335569 -0.008399725
0001d0 fa 52 38 3d cc f4 6a bd 10 0d f1 3c a0 d6 00 bb
       0.045001008 -0.057362363 0.029425174 -0.0019659176
0001e0 68 4b c3 bc 90 96 3b bc c4 d1 88 bd a0 4b 2e bb
       -0.023839667 -0.011449471 -0.066806346 -0.002659537
0001f0 78 d0 fa 3c ac 4b 4e 3d 50 64 6e 3c c2 46 71 3d
       0.030616984 0.050365135 0.014550284 0.05890537
000200 80 22 a0 ba 80 f2 aa bb 20 63 1b 3d a8 3b 64 3c
       -0.0012217313 -0.0052168965 0.03793633 0.013930239
000210 2a 36 8a bd b0 f0 ef 3b 3c af e2 bc 16 32 f5 bc
       -0.06748612 0.0073223934 -0.027671449 -0.02993111
000220 28 41 e9 3c 00 f2 75 ba c0 bc e0 ba 92 82 d2 bc
       0.028473452 -0.0009382069 -0.0017146096 -0.025697026
000230 7b 62 0e bd 40 34 ad 3b 2e 2a 0c 3d b7 46 6a bd
       -0.034761887 0.0052857697 0.034219913 -0.057196345
000240 78 22 4d 3c 00 2d d5 39 ac c3 f4 3c 42 e2 ae bc
       0.012520425 0.00040660053 0.02987846 -0.021348123
000250 50 90 58 3d a2 d2 75 bd d7 c4 82 bd 0e 91 24 bd
       0.052872002 -0.06001533 -0.063852005 -0.040177397
000260 2b 35 89 bd a3 13 27 bd 04 3d 02 bd 8c a7 22 3d
       -0.06699594 -0.04079021 -0.03179647 0.039710566
000270 30 e4 be 3c ba ba 65 3d 80 fe 67 bc 9c e9 3b bc
       0.023302168 0.05608628 -0.014159799 -0.011469271
000280 34 96 de bc 41 77 17 bd 0e 4f 43 3d 89 0d 90 3d
       -0.027171232 -0.036978964 0.047682814 0.070338316
000290 d0 89 da bc 44 15 37 3d d8 98 41 3d 69 81 85 3d
       -0.026677042 0.044698015 0.047264904 0.06518824
0002a0 84 e8 f7 3c 9e 5e 30 3d b2 0f 33 bd f6 be 01 3d
       0.03026224 0.043058984 -0.04371614 0.031676255
0002b0 ae b4 35 bd a0 4f 48 bd 67 aa 8b bd 78 90 30 3c
       -0.044361763 -0.04890406 -0.06819611 0.0107766315
0002c0 50 a0 48 bd 10 68 90 bb 98 b1 57 3c 00 49 f2 bb
       -0.04898101 -0.0044069365 0.0131649 -0.007393956
0002d0 93 43 8c 3d 90 05 39 3c 08 55 f9 bc 80 b3 22 bb
       0.06848826 0.01129283 -0.030436054 -0.0024826229
0002e0 78 c4 da bc dc 6f 45 3d ca 62 47 3d d6 09 d2 bc
       -0.026705012 0.04820238 0.048678197 -0.025639456
0002f0 14 9c 8b bd 4f 6c 80 bd e0 3a 3e 3b 5a c7 2a bd
       -0.06816879 -0.06270658 0.0029026791 -0.041694023
000300 b6 31 35 3d 02 17 d0 bc 4e de 4f 3d 40 2d 02 3c
       0.04423686 -0.025401596 0.050749116 0.007945359
000310 90 92 2f 3d 3c 16 08 3d b2 50 d5 bc e2 de 28 bd
       0.042864382 0.03322433 -0.026039455 -0.041228183
